results/model_new.npy (npy, 228712 bytes, 1 tensors)

array f8 [596, 15]
-0.5618586868940375 0.7673733381538891 0.6126685497999245 1.3908299504836337 -0.02515240609075996 -0.36458214183436166 -0.053056336974463915 -0.7545025120113462
0.2481378747760397 0.04008810808077904 -0.3390958872276724 0.3893829964058478 0.4380072715970642 0.4321933746302017 -0.14220561672677712 2.3893459628752916
-1.3218348668800433 -2.647229400562151 -0.10002645996579354 2.851229252140324 -0.44255034726855963 -1.2737897521553738 -0.25591630661845416 -0.44720892148618907
-0.2708922677214122 -0.08374718536286276 -0.6665428466325022 -1.89975175974671 -0.4202661924183072 -0.5874018592296416 0.9779262708245248 0.5821501856867783
0.1992585005900623 0.31591308620156666 0.5592140707508315 0.06059971622531002 -1.2120863698078759 -0.4908746959056371 -0.4583581528214442 -0.32969846640784084
-0.433939690777459 -0.3145675656197188 -0.6207711841574 -0.2781895979102224 -0.43024006293652495 -0.5758217558862133 -0.052511498502123735 -0.41930480355430383
0.8121506669307279 -0.20046234914350475 2.260353348197825 0.3893253490842556 -0.07609092694141698 -0.4819823876120342 -0.30589578760909714 -0.49230510834655833
0.12540153564626028 0.6930796657385874 0.7163465636463713 1.07426626393474 -0.43518342181131414 0.11636843462953295 0.4404077492512754 -1.1296914997829068
0.2930026757448358 0.40430852930773664 0.8388067533145601 -1.3236495441402554 -0.2546913170621933 -0.3093926756730791 0.5290896991126806 0.3893829964058478
0.41555194780311094 0.4321933746302017 -0.15566621117828827 -0.95659928566266 0.3043154569856481 -0.039639164726157576 0.5764950769464899 -0.4701699538395238
1.1037162712178028 -0.06963561116732052 -1.2811559553489602 0.5076396076013073 -0.015669214591925936 -0.5740166929432974 -0.4905552061261105 0.19488171957516087
0.14804018561403207 2.0157282493052677 -0.054993113231249745 -1.3218348668800433 0.6331876677400474 1.648876727357314 -0.7804018072209647 -0.0654837134708002
0.4094095584991833 -0.235540067877338 0.602510236387068 -0.10890313955406508 -0.08374718536286276 -0.05058610486013136 -0.9536777457756385 1.4267295361867953
1.091933314646251 0.6221231941366582 -1.3218348668800433 -0.8237266321486452 -1.1296914997829068 1.7084681418693104 -0.2241440307533458 0.38830019927620585
-1.300530727810799 -0.47643263772813693 -0.34288762738903406 -0.696584069838406 -0.5785490263793063 1.123985508627575 -0.9885725704506465 -0.42552220315243605
0.8803200128529455 0.7042136050975081 1.1586947387215443 1.6758149571984224 1.869168923003511 0.997521379548698 -0.22895125568497743 -0.022208113797553507
0.00250577078594623 0.3635797354777013 0.010535412248759084 3.7331481660272887 0.15488723304200258 2.8474954812676434 -1.1071646556378494 0.3813388929185137
0.054264201155280724 0.7250354693815093 -1.1296914997829068 -0.27837787938864494 0.37099748031522267 0.5012494798298561 -1.1636505785804219 -0.48535010945342877
-0.300154407988943 1.4483450258259953 1.0933335584314143 0.6234371711021529 0.4321933746302017 -0.92990838764172 -0.3225575952191334 -1.3218348668800433
-0.8948349570242217 -0.4703269387861102 -0.36278637048837137 -0.7995410095973425 0.16338623436413696 -1.5415306424298294 -0.5278354901233975 -0.33062656340292107
-0.08374718536286276 -0.4025613858729147 -0.1809803489722702 0.005963591105947249 0.8134990183109492 -0.1646549579713332 -1.3218348668800433 0.12730703322562872
1.0075357669730047 -0.1138895377591722 -0.6043575498198961 -1.5416722226482502 0.9207803894074686 -0.2359435514721569 -0.2842089881670177 -0.2063145622579714
-0.22657374536652303 2.5758645500540234 -0.4202661924183072 0.9291090774745472 -0.46759254807281453 1.1296480334206358 0.5487932603616019 0.6286139962083166
-0.20046234914380684 0.644499220355225 0.7192763669214882 -0.6663178424194306 0.3626216385983768 -0.20530852040844663 -0.23695640648174857 -0.6665428466325022
0.04363094208010203 -0.9885725704506465 -0.6344275406094627 -1.2393410364241344 0.345173505324341 0.08844904039914214 -1.1296914997829068 -1.641899658685653
0.27924318386510216 1.7783081158718979 -1.1210522612893292 -0.1541176610518393 -0.22743122813516486 0.5290896991126806 -0.4025613858729147 -0.42887383890509
-0.2781895979102224 -0.021089178307466618 -0.03529264181079727 0.23544046121559906 1.1519589236255126 0.618881603301822 0.929312839416933 -0.46061796804131455
1.3832496869949829 0.19267840395104496 -0.5911436551948631 -0.3281446453501784 8.18955075505697 5.4050307508380095 0.2841401573339841 1.8529593197110499
-1.8854207093217294 0.12161194789413804 -1.3218348668800433 -1.6320907067450812 -1.1296914997829068 -1.505547480756433 1.1063308104712248 0.1418893071490679
-1.3686958901140256 -0.48274536947777735 -0.3522668553663157 -0.08374718536286276 -0.5785490263793063 -0.2145498716803979 -0.9885725704506465 -1.0607319190725104
-1.719977701303989 -0.19006692790793583 0.18124507498128428 -0.6772336268253463 -0.693927374031825 -1.6515367925486892 0.883452754130271 -1.2816501429573643
-0.5583681902771648 -0.34268589358271584 0.8355081413504521 -0.22657374536652303 0.03993923400916846 0.4321933746302017 1.184767685816868 -1.5449355168257703
00000000: 5fde a511 bffa e1bf 892f e687 528e e83f
00000010: a4b5 1513 fb9a e33f fafd f9e7 d640 f63f
00000020: 7d56 4d66 8dc1 99bf 0297 f855 5055 d7bf
00000030: e53f 4d40 332a abbf a4d5 ba73 e224 e8bf
00000040: baf0 875c fbc2 cf3f 15b7 54b2 6d86 a43f
00000050: 1576 763c bfb3 d5bf 5d9f cba8 a6eb d83f
00000060: 68da baa6 4f08 dc3f f669 6566 0ea9 db3f
00000070: 0813 932c cb33 c2bf 3508 8b6a 611d 0340
00000080: 9465 3f51 3c26 f5bf 9a64 a39b 862d 05c0
00000090: 1aa9 4986 559b b9bf d7ba 3a48 51cf 0640
000000a0: a385 16b1 be52 dcbf e2cb f75c 7161 f4bf
000000b0: 9f1e dcc9 ee60 d0bf aace 102b 129f dcbf
000000c0: 5393 a685 4c56 d1bf c9fa 439e 7470 b5bf
000000d0: 3d6b f5a9 5154 e5bf cf16 ea19 6265 febf
000000e0: c644 032c a4e5 dabf 6d07 e0fb fecb e2bf
000000f0: f9e5 e208 2c4b ef3f 4052 1c6d f9a0 e23f
00000100: 03fe bd73 4d81 c93f 5c4e 6785 eb37 d43f
00000110: aecf 2ae8 14e5 e13f 004f ab0e ed06 af3f
00000120: f708 64ad b464 f3bf 6350 56b3 7d6a dfbf
00000130: d446 0e6f bd55 ddbf 80d5 b098 c719 d5bf
00000140: a2d5 14fb aac5 dbbf 8704 aeff df21 d4bf
00000150: d02a c887 5bdd e3bf a727 47be dbcd d1bf
00000160: 6272 ef9d 0d89 dbbf 1e69 3bbf 216d e2bf
00000170: da0d 7681 c9e2 aabf 7792 94d0 e3d5 dabf
00000180: cc8b 3c65 23fd e93f b249 d310 c0a8 c9bf
00000190: 614f df22 3415 0240 b785 74de b4ea d83f
000001a0: 9257 bcea b17a b3bf edaa 02a8 ccd8 debf
000001b0: 99f9 f0ec cb93 d3bf 1f24 0049 ed81 dfbf
000001c0: ce03 3c53 280d c03f c4d5 3b68 b52d e63f
000001d0: 1ad2 eea0 4fec e63f a6bb 6cd2 3130 f13f
000001e0: cf38 1c91 0bda dbbf 4843 055d 52ca bd3f
000001f0: cb1b fcfb a32f dc3f 3c30 e264 3713 f2bf
00000200: 63bb 7d4b 8ec0 d23f b0b7 b7e1 30e0 d93f
00000210: 99cc a442 81d7 ea3f cd29 f724 ab2d f5bf
00000220: cadd 56cf dc4c d0bf dfd1 e8ef 16cd d3bf
00000230: b8dc 4a85 4dee e03f 5d9f cba8 a6eb d83f
00000240: 199f 6632 6798 da3f f669 6566 0ea9 db3f
00000250: 602e 0dd3 deec c3bf ec89 e91a 769c eebf
00000260: fceb da89 e779 d33f 1f7a 47a8 954b a4bf
00000270: 2349 b9cd a572 e23f 8b5d d3b7 4317 debf
00000280: b218 8f64 d2a8 f13f d7c1 99b0 a3d3 b1bf
00000290: 6dca 1463 9d7f f4bf 11a9 196b 953e e03f
000002a0: 7fc2 e730 970b 90bf cd95 7141 585e e2bf
000002b0: 806d cca9 4165 dfbf 80ef 145a e2f1 c83f
000002c0: 6f5f da15 fbf2 c23f 9d1d e321 3620 0040
000002d0: fbb8 aaad 0e28 acbf 9465 3f51 3c26 f5bf
000002e0: 8e91 a5c8 1243 e43f aa29 3290 cc61 fa3f
000002f0: 5d1b f835 0df9 e8bf c218 c767 8ac3 b0bf
00000300: 651f 1b26 c433 da3f 0624 374c 2d26 cebf
00000310: ba34 198c c347 e33f ca01 d17e 13e1 bbbf
00000320: c9fa 439e 7470 b5bf 8e38 0304 6ce6 a9bf
00000330: 98f0 2031 8784 eebf 748d a259 e2d3 f63f
00000340: af18 3d11 8f78 f13f d9cc 9ce6 6ee8 e33f
00000350: 9465 3f51 3c26 f5bf 6086 3df4 f75b eabf
00000360: 3c30 e264 3713 f2bf 9e62 b9b0 e255 fb3f
00000370: 49f1 d668 c0b0 ccbf 48fb 3a14 e9d9 d83f
00000380: 523f f64e f9ce f4bf f084 7251 df7d debf
00000390: 1db1 75f2 def1 d5bf 6adb dbac 6a4a e6bf
000003a0: fed0 6d3f 7983 e2bf d8bb 8b3a d8fb f13f
000003b0: a2dc 79f1 62a2 efbf bebd 907a c13b dbbf
000003c0: 67f7 26e0 942b ec3f 8658 69f8 ea88 e63f
000003d0: 65b3 8d7e 038a f23f af09 3558 23d0 fa3f
000003e0: 73fe 2fac 1de8 fd3f 671e c7f4 b1eb ef3f
000003f0: 3cc6 c555 464e cdbf e387 dd49 b9bd 96bf
00000400: a20e 7672 fb86 643f 1c5d 57f0 e344 d73f
00000410: fc64 7718 9793 853f 3aad 21c9 7cdd 0d40
00000420: d0dd 3d48 58d3 c33f 216b fcb5 abc7 0640
00000430: d206 3449 f2b6 f1bf 7fc8 713e db67 d83f
00000440: fd69 9c72 84c8 ab3f fcdf ad95 7d33 e73f
00000450: 3c30 e264 3713 f2bf 29dc f973 f1d0 d1bf
00000460: d78b 3637 6cbe d73f 2633 6059 3c0a e03f
00000470: 1a97 af11 509e f2bf 8d99 cde7 f90f dfbf
00000480: 1e04 84d5 ba35 d3bf 68f3 73d5 6b2c f73f
00000490: d050 5154 4b7e f13f f8d2 9f82 32f3 e33f
000004a0: f669 6566 0ea9 db3f 1a50 263c cfc1 edbf
000004b0: b2b9 a29c c8a4 d4bf 9465 3f51 3c26 f5bf
000004c0: 3592 77eb 7ca2 ecbf a0e7 2029 d619 debf
000004d0: 70a7 2b53 e437 d7bf 4c01 0107 d795 e9bf
000004e0: 9ef3 9a12 d7e9 c43f ad49 f008 1caa f8bf
000004f0: a0f0 f740 07e4 e0bf 5c48 4051 fc28 d5bf
00000500: c9fa 439e 7470 b5bf 0439 bdd4 90c3 d9bf
00000510: 13fc 0634 5d2a c7bf 09a6 444c 476d 783f
00000520: fe27 df17 2f08 ea3f 8739 cee5 6913 c5bf
00000530: 9465 3f51 3c26 f5bf 479f 20cc 984b c03f
00000540: 7730 0bd3 dd1e f03f 5f3e 0860 dd27 bdbf
00000550: 0c26 f2a4 e556 e3bf 58d0 167e b0aa f8bf
00000560: 00b4 696f 0877 ed3f 6a33 a3f6 6533 cebf
00000570: 9a05 5ae5 7a30 d2bf d813 cbfc 8368 cabf
00000580: 16a0 3d55 5e00 cdbf 2543 8bdf 5e9b 0440
00000590: c644 032c a4e5 dabf e86f c5f5 42bb ed3f
000005a0: f1dd 744b 09ed ddbf 7d84 f8d0 0913 f23f
000005b0: dc95 30e2 b68f e13f 0ab9 7019 9b1d e43f
000005c0: 3674 d310 c0a8 c9bf 5d24 37d4 bc9f e43f
000005d0: e5d4 16df 4f04 e73f f9d8 bdcb 7952 e5bf
000005e0: 8286 a663 3135 d73f 6149 5fb2 8c47 cabf
000005f0: 7559 3568 9654 cebf 3d6b f5a9 5154 e5bf
00000600: 66c9 a77a cb56 a63f a2dc 79f1 62a2 efbf
00000610: e92d 53fc 3a4d e4bf b884 4044 57d4 f3bf
00000620: 1814 349d 5217 d63f 687c e0a7 98a4 b63f
00000630: 3c30 e264 3713 f2bf 23e5 9593 3845 fabf
00000640: c437 95cd 1edf d13f 5019 fe35 f373 fc3f
00000650: 2383 f57e d4ef f1bf 9f11 faa4 20ba c3bf
00000660: b6fe 766b 771c cdbf b8dc 4a85 4dee e03f
00000670: 0439 bdd4 90c3 d9bf f644 0d42 ab72 dbbf
00000680: a727 47be dbcd d1bf 2734 85cc 6698 95bf
00000690: 5fcf bb8c e011 a2bf 6dbf 89bc e922 ce3f
000006a0: 38e9 f47a 6c6e f23f 39e0 c8ca e0cd e33f
000006b0: 5a8e a147 eebc ed3f adfe 2bc9 c37a ddbf
000006c0: f087 7d6c ca21 f63f 60bf ce99 afa9 c83f
000006d0: 4598 4919 a6ea e2bf fcbc 0866 5200 d5bf
000006e0: b8cd ebcb 0c61 2040 f1e4 9261 c09e 1540
000006f0: 54b4 ce32 5a2f d23f 4ca3 efab b8a5 fd3f
00000700: a5ce dbe7 ae2a febf 0418 02eb f521 bf3f
00000710: 9465 3f51 3c26 f5bf dd35 1925 0b1d fabf
00000720: 3c30 e264 3713 f2bf fdc8 86f4 b816 f8bf
00000730: 537f 98ef 87b3 f13f 80bd edc6 6d29 c23f
00000740: 7f59 63a9 2de6 f5bf 9af5 8cd5 4ce5 debf
00000750: 6fd6 d047 8a8b d6bf c9fa 439e 7470 b5bf
00000760: fed0 6d3f 7983 e2bf 1e39 1dc5 5e76 cbbf
00000770: a2dc 79f1 62a2 efbf 05d6 6308 c2f8 f0bf
00000780: bf32 8f56 0785 fbbf 1638 b5f3 1c54 c8bf
00000790: 0c87 cde2 0933 c73f 2eec deda e5ab e5bf
000007a0: d481 282e a734 e6bf 9d32 02d8 b16c fabf
000007b0: de9e d1b5 3e45 ec3f 51a6 8e94 a381 f4bf
000007c0: 83bf 8bf7 26de e1bf 5240 6fd0 90ee d5bf
000007d0: c08a d491 7bbc ea3f 16a0 3d55 5e00 cdbf
000007e0: 4418 cb4f ea72 a43f f669 6566 0ea9 db3f
000007f0: 8c0e fff5 cef4 f23f f020 f34d 0eb8 f8bf
