results/model.npy (npy, 184656 bytes, 1 tensors)

array f8 [643, 11]
0	0xbfc26425b40f70a9	-0.14368125240333043
1	0xbff53666bc494c03	-1.3257815699514601
2	0x3ff226f94b0fa37e	1.1345150882791297
3	0xbff22aa9bed750b4	-1.1354157881478786
4	0xbfea5f41d0823172	-0.824128062480254
5	0xbff0b2327b55e5d0	-1.0435051744265031
6	0xbfe422a8f683e642	-0.6292309584379796
7	0x3fe26c9aa6d9e705	0.5757573374569068
8	0xbff024e7b7df8f7f	-1.0090100462484484
9	0xbfe17a7f057660fa	-0.5462031466186368
10	0xbfd70aafdc9c781d	-0.3600272802740408
11	0xbfe6eb8ba22d0ba4	-0.7162531058787533
12	0xbff53666bc494c03	-1.3257815699514601
13	0x3fefa4a13c5c0be3	0.9888464144609056
14	0xbff22aa9bed750b4	-1.1354157881478786
15	0x3fd4a536cd396d8f	0.322583866514571
16	0xbfe82d73b8c92283	-0.7555483445258492
17	0xbfeb8ad302e4e5b5	-0.8606963211561182
18	0x3fe185b96883f40d	0.5475737611119499
19	0xbfe6914585f1e451	-0.7052333465682158
20	0xbfc3ff78742d1f02	-0.15623384163540527
21	0xbfd19ac3980b7f93	-0.27507104728828685
22	0xbfe53e3ea1a63664	-0.6638482243740325
23	0xbfdc58d7f9c11218	-0.44292258634621495
24	0x3ff5728a4ecb6fd4	1.3404639318387028
25	0xbfbde191b2de9573	-0.11672316185884828
26	0x3fe8cb3ac0db7d78	0.7748082892175452
27	0x3fc5327684b7689c	0.16560250740332527
28	0xbfe588e57bf71438	-0.672960989112318
29	0x3fd2205517591065	0.28322341232365594
30	0x3f94bdf08a4d33b1	0.02025581211210054
31	0x3ff8d8040bc0d1fb	1.5527382334813626
32	0x3fdc175c5eaf3908	0.4389258312848061
33	0xbff0a1733d60db82	-1.0394165418235564
34	0x3fa4299dc07e0109	0.039380006549437914
35	0xbfcbda1ff03e6da2	-0.21759413939149136
36	0x3fe0ef61216981a6	0.529221120126796
37	0x3fcb320795a9fc3f	0.2124642830640102
38	0x3fe39007ecf62710	0.6113319042353584
39	0x3fa3e75b2c524481	0.03887448230774116
40	0xbfdcce96e9483003	-0.4501092222351419
41	0xbff01d56b0f2a0a0	-1.0071627532979974
42	0xbfd99d7b8536df51	-0.4002369690820063
43	0xbfd10b329788f5a0	-0.2663084487756695
44	0xbfc9a67693f7fabe	-0.20039255356819824
45	0x3fe2436c3bcf7ab0	0.57073032075626
46	0xbfe733048528cbea	-0.7249777413147716
47	0xbff22aa9bed750b4	-1.1354157881478786
48	0xbfe032e12fdcce5a	-0.5062108931364933
49	0x3fddebe96679dc39	0.46752390868590826
50	0x3fdb972a55b7fb8c	0.4311014020058159
51	0x3ff0741ba3a0ab8e	1.0283466712669198
52	0xbfdf2258c25964f0	-0.48647135714925493
53	0xbfe249a50e60ff05	-0.5714898377263756
54	0xbfd86f4da3211e20	-0.3817934125004019
55	0x3fd14ec4577a5f79	0.27043255369925806
56	0x3fde829dc7f1db63	0.47672218824248186
57	0x3fb814ba9d5e07b4	0.09406629888510915
58	0xbff22aa9bed750b4	-1.1354157881478786
59	0xbf90fb83a2460619	-0.01658445051135091
60	0xbfe468c16d23a79d	-0.6377875453592768
61	0x3fbd2fcb53b6d02f	0.11401053232003798
62	0xbf9573907fd1a191	-0.020948655892796323
63	0xbff78472d4664f29	-1.4698360726224087
64	0xbfe00f1800516ff0	-0.5018424993718309
65	0xbfd3e5641b38a17d	-0.31087591799089137
66	0x3fe6d8c9e1878093	0.713963451849866
67	0xbff53666bc494c03	-1.3257815699514601
68	0xbfebd538f4a40d7c	-0.8697781351224161
69	0xbff22aa9bed750b4	-1.1354157881478786
70	0xbfdcf859439db462	-0.4526580009758786
71	0xbff3f204cbc36bff	-1.2465866050249585
72	0x3fd7c7d0078587bc	0.37157059416324123
73	0x3ff38a1b2511b78b	1.2212172935500998
74	0x3fea57d88ea71162	0.823223379724862
75	0xbfe39e3e44edd650	-0.6130668016691718
76	0xbfd97a1653eb2997	-0.39807661242653
77	0xbfad182b0e202c48	-0.05682501361305775
78	0x3fe5240dddbe0190	0.660651143160111
79	0xbffe88bf43900717	-1.9083855284847624
80	0xbff22aa9bed750b4	-1.1354157881478786
81	0xbfbd0da8f0fd3c1c	-0.11348968394780495
82	0x3fca45394e6c6357	0.2052375443388665
83	0x3fe36e9345b4076c	0.6072479592696545
84	0x3fe32fdf7f18da01	0.5995938761105323
85	0xbff8229f4418f8df	-1.5084526691494415
86	0xbfd6f7ef1374b2a5	-0.3588826837538284
87	0xbfcd3403ce3485a1	-0.22814986771213078
88	0x3f71ab9288519ad2	0.004314014809188209
89	0xbff53666bc494c03	-1.3257815699514601
90	0xc00b3cd7f0966b5e	-3.4047087474731788
91	0xbff22aa9bed750b4	-1.1354157881478786
92	0xbff317b827362b14	-1.1932908565237925
93	0xbff4d446a4b291a7	-1.3018251832482777
94	0x3fd0d74db57d3ae3	0.263141085849311
95	0x3fc469721c8e1a6c	0.15946794885913407
96	0xbfb4036a4719df66	-0.07817711101404043
97	0xbfd856c2c7780501	-0.3802954624116666
98	0xbfcf5d887faa3205	-0.245041906677571
99	0x3fcb1a9fc743729c	0.2117500040975714
100	0xbfce8909d64f2804	-0.23855708088223093
101	0x3fe047d27c9c4953	0.5087673600958545
102	0x3fb9b292c7cce80d	0.10038106325092162
103	0x3fdad8e8cf545b8b	0.41948909995101563
104	0xbfd00b0fd47fa9a4	-0.2506751609022564
105	0xbf77f76f2c181cb9	-0.005851206080030363
106	0xbf8df809c408d65f	-0.014633251471518336
107	0x3ff9a7ec81d54b65	1.603497035179964
108	0xbfe2717faff202b4	-0.5763548313553515
109	0xbfd88aeafb1403b9	-0.3834788753447885
110	0xbfb98393311c2b0a	-0.09966392468428978
111	0x3fde0a139f7bb2bc	0.46936503004580366
112	0x3ff3da34fcb2cec2	1.240773188689602
113	0xbff22aa9bed750b4	-1.1354157881478786
114	0xbfeafe06d0b82808	-0.8435091091680542
115	0xbfdbb73adad3b064	-0.43305846566977935
116	0xbfd2f02222a2ee3d	-0.2959065759893951
117	0x3fcd67fc28f3d8fa	0.22973587035784943
118	0xbfd1b05202a332d3	-0.2763867402798443
119	0x3ff01551e81671f4	1.0052050653385978
120	0x3fcdb20543bb7a6e	0.23199525649302494
121	0xbfe3deffa137ee4d	-0.6209715031431614
122	0xbfdb4cfa4a8198f7	-0.42657334590911894
123	0x3fb7369f2947bbdd	0.09067721135919223
124	0x3fe2553b3c718a22	0.5729042225396521
125	0x3fe3cc40b0f078b0	0.6186831909033312
126	0x3fd9fe254b76ae73	0.4061368214558804
127	0xbfe315099cc29c7d	-0.5963180600855505
128	0x40039e0fd8e02cbb	2.4521786635792444
129	0xbfa9e05523ded612	-0.050539646748273395
130	0xbfbe631fe2fed621	-0.1187000207126734
131	0xbfba55d3c74ea819	-0.10287212005519598
132	0xbff3b1f23cd120cd	-1.230943906370203
133	0xbff53666bc494c03	-1.3257815699514601
134	0x3ff064cd3a5e8865	1.0246097831773338
135	0x3fee5b49faf1a02a	0.9486436749693941
136	0xbfcaee387cb4bcd6	-0.21039491738472432
137	0xbfe92ac516fdadf9	-0.7864709328691212
138	0xbffc8682bb00a8bc	-1.78283951805001
139	0xbff0d7b68c5396d7	-1.052664325857611
140	0xbfd4caca6c27bf49	-0.3248773628429161
141	0xbfd5749a3534c1ba	-0.335241844138206
142	0xbfd3ff99e02b460e	-0.3124756516600379
143	0xbfe23fe7b3cc0ba5	-0.570300913969153
144	0xbfb601bf735c1f05	-0.08596417013552234
145	0x3fe806d128b207a2	0.7508321566422078
146	0x3ff86d40c8c25b85	1.5266731111675835
147	0xbfe7034164b3a5d1	-0.7191473929244073
148	0xbfc5f2a6399b046d	-0.1714675694729836
149	0xbfe542b9045a7bae	-0.6643948636081995
150	0xbff4526c082dc587	-1.2701225585445586
151	0x3fb3a49eeb15d365	0.07673066367517618
152	0x3ffd617087b35953	1.8362889576724981
153	0x3fe67e6d3390768e	0.7029329306712542
154	0xbff25701b8fdf244	-1.146241877198137
155	0xbfce031afeaf5708	-0.23446977077281184
156	0x3fecd4a193ab8d9c	0.9009559520895212
157	0xbff22aa9bed750b4	-1.1354157881478786
158	0xbfe03ab6b2665704	-0.5071671947832503
159	0xbfd5cb17cad6f727	-0.3405208092552691
160	0x3fe59f59164cebfe	0.6757016597324534
161	0x3fb704ba2c258749	0.08991588189885848
162	0x3fbcfad5c3d73362	0.11320243865266158
163	0xbfdfbb27c99567a6	-0.49579806028270423
164	0xbfd3179a44aaa497	-0.2983155890056621
165	0x3fc7fc90a22ea750	0.1873951713471862
166	0xbff53666bc494c03	-1.3257815699514601
167	0xbffcc45fe6bc5078	-1.7979430211171614
168	0x3fb0438cf6b2c0c5	0.0635307409563693
169	0xbfe00919225571b7	-0.5011106176930785
170	0xbff74f7a0373c281	-1.456903470501999
171	0xbffddd58ed18d643	-1.8665398847200698
172	0xbfe99727c4146c8a	-0.7997015790637232
173	0xbfde0ed8677d4811	-0.4696560869825826
174	0xbfce0db4ed9a5c6d	-0.23479329683025033
175	0xbfd2259f13dd7044	-0.2835462278360448
176	0xbfed86baf99577aa	-0.9226965784725867
177	0xbfd07d078cf19a7d	-0.25763119472541246
178	0x3fed316a8e0eaaff	0.9122822546536041
179	0xbff22aa9bed750b4	-1.1354157881478786
180	0x3fdf304bd0cda82a	0.48732276335670355
181	0x400347b4b6f5976b	2.4100126546572276
182	0x3ff3d4c34f1ccddb	1.239444073708788
183	0x3fce23eda093ce3e	0.23547144261066139
184	0xbff4364210f3b8eb	-1.2632465994061544
185	0xbfdf808584fae567	-0.49221933351835506
186	0xbfd44f5b43c7dae8	-0.31734353656012937
187	0xbff10cc67d82907a	-1.0656189825758973
188	0xbff53666bc494c03	-1.3257815699514601
189	0xbfc26a9cde3f6e61	-0.14387856342260633
190	0xbff22aa9bed750b4	-1.1354157881478786
191	0x3fa312aaa9fd865e	0.03725179028584756
192	0x3fac6581bb3c6967	0.05546193514438152
193	0x3fdcfb5ede604834	0.45284244266906915
194	0xbfe2457d9a04cab8	-0.5709827430894938
195	0xbfe81baaea662346	-0.7533773973565097
196	0xbfd12b1e0231cee8	-0.2682566663199695
197	0xbfd19db106e6b142	-0.27524972604694053
198	0x3ff1d7cfb6c7d20a	1.1151883258691009
199	0xbff53666bc494c03	-1.3257815699514601
200	0xbffada562c49d8d5	-1.6783048372285994
201	0xbff22aa9bed750b4	-1.1354157881478786
202	0xbfe4772a918d3b0e	-0.6395466654592796
203	0xbff05fe8abb4e1c3	-1.023415251473225
204	0x3fce45f1651e4f22	0.2365094894163287
205	0xbfd72f52867d6d63	-0.36226332792076316
206	0x3ff0ae08d1a18768	1.042488879080759
207	0xbfd9951bc1b7c5f3	-0.3997258559967058
208	0xbfd38281e30490c7	-0.30484053773603786
209	0xbfeb498428e17465	-0.8527241514635874
210	0xbfce46126a7f3353	-0.2365134258274347
211	0x3fd3aab744106101	0.30729467055199683
212	0xbff22aa9bed750b4	-1.1354157881478786
213	0x4003bde07f7a4730	2.467713352126246
214	0x400747bc668dd4a6	2.910027314380005
215	0xbfd978943bc11055	-0.39798456035010094
216	0xbff6665d10841aeb	-1.3999910969884535
217	0x3fea3c721e94368a	0.8198786351437815
218	0x4016fceeb29fac4e	5.747004309650107
219	0x401f0cc49286cb49	7.762468614079645
220	0xbfeb940c31dc637b	-0.8618222211690488
221	0x3fa211e261febcfb	0.03529269644001861
222	0x3fdcf2ff278ee041	0.45233134139153114
223	0xbfc6a4de4c0b35f2	-0.1769063826854303
224	0x3fdf7fae50e86ab9	0.49216802502784734
225	0x4001b36fa5ddb7ee	2.2126152952468976
226	0x3ff76b89071fc809	1.4637537267958598
227	0x3fe5639a770acdc2	0.6684086155932436
228	0x3fdc65ddfddbbf40	0.443717477711278
229	0x3fe79a72d2968ec4	0.7376035798119678
230	0x3fb55c09edfd3339	0.08343565044669966
231	0xbfd39160e6c4c0b1	-0.30574820075981807
232	0x3feb49c44352fc62	0.8527547182965345
233	0x3ff21582cfe9a0d2	1.1302517053209624
234	0x3fd160b033a60e25	0.27152638477147867
235	0x3fb06d7073c76de8	0.06416991068493128
236	0x3ff9e816c1000a70	1.6191623248165818
237	0x3febcc136a57bc2a	0.8686616017347479
238	0xbff39780f851d0c3	-1.2244882297500659
239	0x3fb0cee0e200a238	0.06565671460760647
240	0xbfdbc6b782c7542f	-0.4340037133345644
241	0xbfd2314c3e193408	-0.2842589003019502
242	0x3fd96e3152075dff	0.3973506260931287
243	0x3fc033a412c48657	0.12657595554724096
244	0x3fe5875e2634280b	0.6727743860403747
245	0x3fd48643785c029c	0.3206947970757399
246	0xbff35617d50226ad	-1.2085188217774132
247	0x3f9d46171b593b89	0.028587685627197188
248	0x3fd67b2e79db16b2	0.3512684049604601
249	0xbfe17e90f019633b	-0.5466999711453363
250	0xbff80df8b9942554	-1.5034110306899793
251	0xbfdfcb29dd6b4018	-0.4967751180929567
252	0xbfd562047b2436ee	-0.3341075136712409
253	0x3ff7700e635a2c67	1.4648574715563656
254	0x3ff65784e26933bf	1.3963669628312656
255	0xbf91bb7577df002f	-0.017316661301947697
