results/model.npy (npy, 171496 bytes, 1 tensors)

array f8 [596, 11]
000000 69 d9 9d 0f a2 fa d7 bf b7 40 56 9b bd 11 db bf
       -0.37467242741640533 -0.4229578034364851
000010 18 d9 44 90 42 37 e4 3f 09 11 11 d4 57 aa a6 bf
       0.6317456071617782 -0.04426836456016942
000020 d9 d2 b1 38 14 06 f9 bf 57 a3 1e 0c 2f 90 a7 3f
       -1.5639841284402591 0.046021909932568654
000030 32 fb e9 2c a8 66 f8 bf 77 f9 c5 48 0c 5d 02 40
       -1.5250627283528044 2.295433586637212
000040 76 24 b2 81 4d 3f e0 bf 31 b4 32 98 0e 6e d2 bf
       -0.5077273877260626 -0.2879673467930984
000050 39 64 1c 7a 3d e0 a3 3f c9 7a c8 fd 20 6d df bf
       0.03882019153224587 -0.49103569777973327
000060 94 65 3f 51 3c 26 f5 bf 2e d0 f1 5e 14 03 e9 bf
       -1.3218348668800433 -0.7816259245287307
000070 5f 1b 10 d2 94 4f fc 3f 10 97 47 d7 75 e4 cf bf
       1.7694290357191773 -0.24915955554677582
000080 ad 8f 1b a2 2c a8 c8 3f d7 2d 1a 76 ef 21 eb bf
       0.19263227382100237 -0.8478925043759159
000090 d8 6b c4 2c 9c e7 e5 3f b9 b1 fc b5 ae 2e e1 bf
       0.684522712169719 -0.5369485430178919
0000a0 21 60 e6 36 75 b3 d7 bf c3 5a a4 40 79 f8 d8 bf
       -0.3703282390720251 -0.3901656276006344
0000b0 e3 db 0c 17 84 3b d9 bf 1e 8e 4c 39 db e1 bf 3f
       -0.39425756693839115 0.1245400442972415
0000c0 3d 4c 9f eb 87 b3 e3 3f 1b 02 0c 47 04 7f ec 3f
       0.6156653978345116 0.8905049693713097
0000d0 9c 3a 3a 22 b5 5f f1 bf 8f fe 46 20 66 20 e7 3f
       -1.0858661019334823 0.7227049475113335
0000e0 fc b7 36 c1 be 0b c1 3f a9 ef d0 c3 51 de e9 bf
       0.13317093309655081 -0.8083885979208293
0000f0 e0 16 16 f1 f2 2a d3 bf fc d5 f3 18 cd ee d0 bf
       -0.29949639838774367 -0.26457526623502736
000100 c3 5a a4 40 79 f8 d8 bf 36 a4 40 3b f3 f6 e5 bf
       -0.3901656276006344 -0.6863952786708356
000110 bc fb 64 8a e7 dd a2 bf 3d 03 cc 3d 8f 36 f1 bf
       -0.036849246639114125 -1.075820199388729
000120 8f 35 58 4b 94 7e c4 bf 4f 00 45 b8 5d 77 f0 3f
       -0.1601128929036517 1.0291421125439404
000130 c4 c0 7f ea d3 be ae bf da be 88 a2 e8 02 de 3f
       -0.060049650550241945 0.46892753479458593
000140 87 31 cc 23 2b 19 ee bf 50 40 68 10 3a df d1 bf
       -0.940572328488586 -0.2792496834017628
000150 89 71 da d9 a9 c7 d0 bf 6d ca b8 db 82 13 fc 3f
       -0.26218649172530967 1.7547634680637672
000160 2a 15 c3 b2 f9 7d fa 3f 1d 15 17 b1 bd 18 a8 bf
       1.6557557089702848 -0.04706375872368993
000170 a9 81 1a 13 11 f5 cb 3f 90 71 8d 3c 49 e0 e3 bf
       0.21841634209432684 -0.6211286719003954
000180 61 ef ec 3c 5a 0b cb bf 99 33 51 9f 93 1c c8 3f
       -0.2112839505660942 0.1883720901409134
000190 b6 91 92 19 a0 da f4 3f 29 be 2f cf a1 bc ec bf
       1.3033753394057448 -0.8980263754473913
0001a0 6e ba 0f cc 70 da b1 3f 5b 8b 16 e0 ca 95 9a bf
       0.0697393892475959 -0.02596203797078132
0001b0 66 04 97 a6 53 63 e1 bf cf cc ce 01 26 93 f2 3f
       -0.5433748487195202 1.1609249182336503
0001c0 d1 28 f8 ce 74 34 e7 3f 75 65 ce 8d 11 bb f4 bf
       0.7251533548708499 -1.2956710376077727
0001d0 e8 65 ad 48 5f fa db 3f e9 b0 99 c5 fd 19 e1 3f
       0.43715650651355853 0.5344227656728694
0001e0 7b e1 62 17 08 08 ec bf 33 95 1d 71 8b 0b e2 3f
       -0.8759804207575564 0.5639092644966354
0001f0 1e 84 96 41 d8 86 d6 3f 38 59 ee d2 83 d7 e3 bf
       0.3519802704341276 -0.6200579757449196
000200 e4 f1 c7 e0 30 96 d8 bf ae e5 fa 37 07 b0 e0 bf
       -0.38416692687294884 -0.5214878171311079
000210 96 09 22 6d ee 8c e9 bf 4a 1c 79 51 d5 14 ce bf
       -0.7984535342696286 -0.2350107810800373
000220 ca 6b 52 a7 64 5c ef bf ed 22 d0 19 93 5d d7 bf
       -0.9800284641272523 -0.3650863411026382
000230 1d 4d a0 00 71 3b f1 bf 8e e8 1e b8 bd 95 eb 3f
       -1.0770120644054437 0.8620289417369962
000240 cf c7 b2 4a 5d 44 df 3f c0 47 75 6e f0 42 ea bf
       0.48854763312112665 -0.8206712872872615
000250 c2 ba 58 4a 0f ce e2 bf 8a cf 2e 3d 2b 58 d7 bf
       -0.5876537754137063 -0.36475640272987475
000260 b8 dc 4a 85 4d ee e0 3f 92 51 9e 5f 68 74 f1 bf
       0.5290896991126806 -1.090919850835324
000270 b8 17 e0 f6 47 05 dd 3f 1c 53 7b f6 c8 c6 f5 3f
       0.4534473334209639 1.3610314968293045
000280 2d 91 66 f4 2e f6 e7 3f 77 dc 75 1a 0c 2e e4 bf
       0.7488016866159676 -0.6306210057072253
000290 05 c7 a9 46 27 5e e7 3f 68 f8 0a 49 a3 f0 ff bf
       0.7302433376446237 -1.9962494710194054
0002a0 b9 c0 32 3c d1 fc ed 3f 45 1d 4b ab b4 93 c9 bf
       0.9371114898440488 -0.19982012142120645
0002b0 f2 c9 94 36 34 ea c6 bf cd 95 71 41 58 5e e2 bf
       -0.1790223375806615 -0.5740166929432974
0002c0 8b 52 98 b8 c2 3c 93 bf ef ef 59 27 dd 84 d6 3f
       -0.018786470906052826 0.35185936777975163
0002d0 e7 ce db 1b 61 6e e3 3f 92 d8 ce d1 4a f1 f8 3f
       0.60722403947008 1.5589092441200916
0002e0 b0 a2 01 26 09 39 ed bf da 04 d5 f6 84 5a f4 bf
       -0.9132123701393393 -1.2720994607810128
0002f0 77 be 38 6c 44 4b 02 c0 9f 58 dd d7 65 49 f9 3f
       -2.2867515997712036 1.580419390889382
000300 66 09 97 7c 78 38 e3 bf c9 f1 e3 04 ed a8 d8 bf
       -0.6006433900259196 -0.38531041600779453
000310 40 3d 64 1d 56 e8 9f 3f 41 d8 d9 45 d2 a3 d7 3f
       0.031159730476301606 0.36937386342413353
000320 0d 8d 04 3a db 11 af bf 12 17 ec 31 69 61 db 3f
       -0.06068310816979237 0.42782049060075267
000330 5c 31 aa 8a 95 4b 01 40 3b 62 c9 9d 1d aa e9 bf
       2.161906321829674 -0.8020160753031357
000340 7f 72 72 b4 53 87 ee 3f e7 02 58 05 50 bd ef bf
       0.9540194057804711 -0.9918594459887488
000350 f6 35 f1 1f 85 26 e8 bf 85 b2 ca 80 c0 85 f1 3f
       -0.7547021507140801 1.0951542883805427
000360 35 dd c8 58 00 a9 0b 40 8a cf cf 69 54 20 d1 bf
       3.457520192747007 -0.2675982507055258
000370 b9 e7 c8 eb cf 14 c0 bf 8d 9c 22 5e 83 19 c8 3f
       -0.1256351376812839 0.18827859970517516
000380 20 7e d7 97 c7 f1 f4 3f 7a 6c 6e f4 44 31 e5 3f
       1.309028237468631 0.6622643255281127
000390 53 05 f6 03 c7 b8 d3 3f 0c 6f df 6c 83 55 f8 3f
       0.3081529177362274 1.5208772900431908
0003a0 a4 9f eb c0 67 96 b7 bf e8 db 20 ea de 6c e8 bf
       -0.09213875255556886 -0.7632898876971668
0003b0 5b 07 04 f0 ff 83 cf bf 62 fe f5 a3 7e 12 d2 bf
       -0.24621581286924762 -0.28237882625396626
0003c0 69 91 48 38 05 6f d2 bf 0c 35 e8 1b 95 b9 d3 3f
       -0.28802614685471056 0.30820205426501057
0003d0 57 0d 46 a8 9e f9 e1 3f 0c 92 f2 1d dc 54 eb 3f
       0.5617211615175773 0.8541088662064467
0003e0 3c 30 e2 64 37 13 f2 bf 63 0d 4b c7 72 ff b2 bf
       -1.1296914997829068 -0.07421033254199964
0003f0 80 36 ce 5e 5d 99 f9 bf 47 7c 3c ce 97 43 cc 3f
       -1.5999425605145063 0.22081277437334476
000400 2a f8 18 46 1f 96 f2 bf 8e ff 59 ce 5e fe a1 bf
       -1.161650918787482 -0.03514381665172471
000410 34 d4 2c 98 30 f0 ce bf b8 d0 fe f0 4c 7d 00 40
       -0.24170501165795744 2.0611819103015385
000420 45 5e 40 0c e7 a2 fb bf ed bd 54 96 2e b0 af 3f
       -1.7272711256572546 0.06189103684516426
000430 ac cc b8 0a ee 9c f1 3f 93 a1 63 4d e6 15 f5 3f
       1.1008129519293943 1.3178465865149505
000440 51 80 fe dd dd 52 fc bf 15 5c 33 ab 1c 12 d0 3f
       -1.7702311202665622 0.2511054679757206
000450 16 03 d0 b6 aa c9 fb bf b2 63 88 e4 8e 1f 05 40
       -1.7367350712885972 2.6404092649576905
000460 86 67 34 2f 73 0a cd bf e7 ff fe 67 b2 e0 cf bf
       -0.22688140683095187 -0.24904470518049424
000470 c9 fa 43 9e 74 70 b5 bf 4c 10 6c b3 94 19 f3 3f
       -0.08374718536286276 1.1937453278233248
000480 3a 40 81 fa a5 97 e5 3f a1 e1 5c 0f 70 f2 d6 3f
       0.6747617619203148 0.3585472250010984
000490 bc f5 18 32 b7 64 f1 3f 06 56 b7 1e 58 dd a1 bf
       1.0870887715276316 -0.034891847371607596
0004a0 02 45 f6 21 dd 2f f2 bf 93 4f 3d a9 d8 f0 fc bf
       -1.1366854979171994 -1.8088003741185943
0004b0 92 f1 64 4f 87 90 e0 bf 65 49 1d 35 43 3c c8 bf
       -0.5176426458997858 -0.18933906644322032
0004c0 69 ef 67 0c 24 6c cd bf c3 5a a4 40 79 f8 d8 bf
       -0.2298626957489163 -0.3901656276006344
0004d0 5f 97 6a db 12 0c eb 3f 94 65 3f 51 3c 26 f5 bf
       0.8452238355136891 -1.3218348668800433
0004e0 2b e8 eb 1f 68 ce f0 3f e9 72 65 e8 be 76 eb 3f
       1.0503922697958028 0.8582453288068709
0004f0 c6 79 0f a1 2f 06 f7 3f 60 2d 64 d1 41 0b eb bf
       1.43901026643981 -0.8451241578745048
000500 d7 b4 e4 bc 4c 28 dc 3f 88 74 8c e1 c8 a0 c0 3f
       0.4399597019826848 0.12990675938718632
000510 3a 7e 81 7d 57 52 e0 bf be 35 84 d7 bf 0a d2 bf
       -0.5100514842305934 -0.28190609022643887
000520 6a db db ac 6a 4a e6 bf 97 43 cf f7 45 3c d1 3f
       -0.696584069838406 0.26930379104765606
000530 94 65 3f 51 3c 26 f5 bf 18 f3 90 f6 a4 df fa bf
       -1.3218348668800433 -1.6796006804935981
000540 7d c8 b9 c8 a1 1f d6 bf 2d b1 ac 87 8c d7 d3 bf
       -0.34568066217537546 -0.31003106355162197
000550 95 90 01 43 16 84 bd 3f c0 75 92 9b 2f 59 f2 bf
       0.11529673705951134 -1.1467739178691403
000560 c4 3d c5 fa f1 90 ea 3f 04 40 59 04 a5 26 09 40
       0.8301935098515334 3.143869432424255
000570 14 45 1a 45 b7 d4 01 40 c9 fa 43 9e 74 70 b5 bf
       2.2288651846544187 -0.08374718536286276
000580 b2 cf 10 de 8b 39 fa 3f 05 7a da ff 65 f3 f4 3f
       1.6390494036140635 1.3094234461092367
000590 3c 55 8d 5a 67 d9 e4 3f b2 bb 4d a6 de 1a d7 3f
       0.6515385407061909 0.3610149978693996
0005a0 ec 90 48 c7 b6 de d0 3f b0 e0 bf 9a 5c fd cb bf
       0.26359338246608277 -0.2186694865811254
0005b0 07 59 7e 17 a2 82 f8 3f 72 1b 9a 94 a4 c6 f1 3f
       1.5318928640095366 1.1109967999234098
0005c0 96 a6 6d 79 b8 01 e4 bf 7f ae b5 9a 5f 13 d8 bf
       -0.6252100345274865 -0.37618246181839504
0005d0 64 1c 2f cf 54 45 f2 3f c6 7f c9 3e 06 a1 f6 3f
       1.1419265835882237 1.414312596571095
0005e0 a2 8e 98 a8 9d 97 f9 3f 4c 0d 0a 39 12 16 f3 3f
       1.5995155893114448 1.1928884723755173
0005f0 a2 4b f2 b3 16 cc e0 3f 47 57 45 b2 87 d0 e5 bf
       0.5249131693438935 -0.6817053300717156
000600 11 5e 07 2e fe b6 ca bf 4a e5 18 dc 56 d2 e7 bf
       -0.20870949981211642 -0.7444261835836781
000610 06 cb ff 0d 3a 0a c3 bf df 25 11 69 7b c9 db bf
       -0.14874959643892555 -0.43417248974273365
000620 a8 90 3d 8f 17 8d d4 bf 26 d4 61 64 5a d5 ba 3f
       -0.3211115740616699 0.10481800986038134
000630 75 53 e3 51 22 fd ed bf 0f 75 9f 17 60 9b d3 3f
       -0.9371501540541504 0.3063583594028651
000640 58 e5 d9 2d f1 40 e9 3f fa f9 17 6b 58 6c ed 3f
       0.7891775031595598 0.9194757548974046
000650 3c 92 76 b2 29 41 d4 3f 9e a7 e8 8c ca db e6 3f
       0.31647722652477106 0.7143299820065641
000660 3c 98 40 0a 04 df ff bf 76 7c a2 a3 ce da ad bf
       -1.9919472122651447 -0.05830999133581198
000670 40 52 42 67 41 95 dd bf d2 1d fc 63 00 a5 d3 bf
       -0.46223483165639223 -0.3069458938993793
000680 88 eb 09 53 88 41 7d bf 81 f1 49 4f 40 85 b7 bf
       -0.00714257480341985 -0.09187700210345008
000690 86 74 fe ab 95 a1 e3 3f 3b 80 e9 48 94 72 ec bf
       0.6134746894127978 -0.8889867233338075
0006a0 cd cc 1b c1 6f 74 e1 3f 61 eb e8 17 d2 00 d8 3f
       0.545463444867346 0.37505009016938656
0006b0 96 5f 0e 06 36 02 e1 bf bd 51 30 a0 0e ff af 3f
       -0.531519901111994 0.06249280648640674
0006c0 4a 80 8a b5 f9 ad 00 40 5b 4d 23 49 3d f2 e0 bf
       2.0849489386455717 -0.5295702389216034
0006d0 05 73 da 61 c1 9d d7 bf c5 e8 c1 59 ca c6 d2 3f
       -0.36900362545002025 0.2933832050836254
0006e0 96 c7 1f 7e 12 f2 b0 bf 6d c6 e0 fa 71 c2 e2 3f
       -0.06619372920229546 0.5862359905206184
0006f0 e7 7f cf 8f ce e3 f4 3f e5 cd 99 23 31 2a bd bf
       1.3056169145202092 -0.1139250480571757
000700 0e 3c 3d bc a9 4b e2 3f 5b d4 c0 fa 28 e7 ee bf
       0.5717362095400647 -0.9657177827381348
000710 6d cb 06 b7 35 4e 99 bf f4 7f 7f 93 fa be e8 3f
       -0.02471240930180889 0.773312843401071
000720 ce 8c be b0 b1 2d d2 bf ba 8e 15 f9 17 f9 d0 bf
       -0.28403894672574104 -0.26520346951131624
000730 c9 fa 43 9e 74 70 b5 bf af 29 ad e3 95 03 f1 3f
       -0.08374718536286276 1.063375367508893
000740 53 39 04 59 f6 ad e5 3f 79 b4 25 5c 08 c0 92 3f
       0.6774856318095693 0.018310671447967473
000750 25 04 d4 9f c6 d3 d2 3f 5e 04 76 33 5b c9 c2 3f
       0.2941757736990119 0.14676990521187155
000760 a3 83 21 95 93 ec c2 bf df 2e bf 5b 56 6a d7 bf
       -0.14784474164755776 -0.36586531600617705
000770 43 8e 8c b0 8e 71 de 3f 5e 45 64 64 61 a6 ca bf
       0.47568099251859425 -0.20820252801835698
000780 7a 08 81 db 21 ab c7 bf 20 71 cb 0f ae c9 c6 bf
       -0.18491004198046196 -0.1780297829744848
000790 01 b5 54 5e aa 51 cb bf e0 42 13 94 cf 8d b7 bf
       -0.21342973333359086 -0.09200761189573425
0007a0 5d b2 fe 90 d5 0e d6 bf 07 d9 bc 76 91 05 de bf
       -0.3446554103818807 -0.4690898570583077
0007b0 e5 e2 19 78 ae a5 ec 3f 76 9e 06 f2 d7 70 c4 3f
       0.8952247949337929 0.15969371144932482
0007c0 9f 86 71 e2 3a 7a da 3f 39 17 40 4e 13 1b f3 bf
       0.41371032823199444 -1.1941102081922976
0007d0 1a ab a5 60 5e a1 d1 bf d5 c9 30 65 a6 97 d2 bf
       -0.2754741615123507 -0.2905059803189521
0007e0 64 1c 2f cf 54 45 f2 3f 6a 5b 67 2b 76 4c f8 3f
       1.1419265835882237 1.5186673827608623
0007f0 94 65 3f 51 3c 26 f5 bf 1f 4e c8 2f 67 09 e0 bf
       -1.3218348668800433 -0.5011478360415288
