results/model_new_new_new.npy (npy, 185800 bytes, 1 tensors)

array f8 [596, 12]
000000 b8 c6 c4 14 b4 56 f4 3f 82 c6 e6 a1 47 9d f0 3f
       1.2711678324962303 1.0383983921314273
000010 08 e1 44 db b1 e0 e0 3f 6f 78 c6 67 e0 54 ea bf
       0.5274285585974505 -0.8228609110699504
000020 79 de 5c 7c 6e 71 f1 bf 34 e7 f2 59 9e e1 da 3f
       -1.090193258087224 0.42002066406313365
000030 ab e5 e1 96 1a 69 e7 bf bd ba 04 e3 7d 80 cc 3f
       -0.7315800616190037 0.22267125687490888
000040 4c e4 fa 86 2d 7c ea bf 61 46 d0 4f 1a fd f0 bf
       -0.8276584278420471 -1.061792670985959
000050 10 64 0b f7 81 85 c8 bf b6 e4 e8 26 50 e9 f0 bf
       -0.19157433092803489 -1.0569612045203889
000060 cf fb 55 07 20 0b c9 bf 96 7a a5 a0 4a 14 e0 3f
       -0.19565201147267294 0.502476991426948
000070 10 4e 49 79 00 b5 a5 3f 48 02 91 5c 08 57 a8 bf
       0.042396559529745415 -0.04753900651894988
000080 5d 6c 6e 90 84 cd f7 3f 03 ec fe d1 0f 23 dc bf
       1.487675251183439 -0.43964000232125516
000090 b1 a2 99 ec d1 51 a9 3f ae e5 fa 37 07 b0 e0 bf
       0.04945236218629157 -0.5214878171311079
0000a0 a2 74 fb 72 57 7f c4 bf 50 4b 95 1a 98 7e ad bf
       -0.16013615717284774 -0.057606461758629934
0000b0 76 58 ab 14 8e fd ec bf c6 d9 e4 ac a2 e7 f3 3f
       -0.9059515384385708 1.2440516236944048
0000c0 be 9d a2 38 3f bc fb 3f 49 41 c3 59 8e 03 e0 3f
       1.7334587299645672 0.5004340890100504
0000d0 64 a8 b0 21 63 9e d8 bf 72 f9 71 2f 52 67 f2 3f
       -0.38466718950315326 1.150224862416135
0000e0 d2 c3 84 a8 6b 09 e4 3f 94 96 a4 ed 7b 7c 04 c0
       0.6261499682788048 -2.5607832494595844
0000f0 b5 37 e2 0b f4 59 f9 3f ed 58 b6 dc 48 9f d3 bf
       1.5844612564282958 -0.3065969615357876
000100 1d 0f a7 e3 a9 07 f3 3f 5c 20 2b cf 90 0b dd bf
       1.1893710034063993 -0.4538309119348065
000110 0f d4 04 74 82 11 02 40 90 60 98 42 3e 4d e6 bf
       2.2585496009801385 -0.6969291020095785
000120 29 69 8f 52 4c 9c df bf eb db bb f0 bd 01 c1 bf
       -0.4939146810771882 -0.13286566023427268
000130 92 17 ca f0 a0 5e e3 bf 3c 30 e2 64 37 13 f2 bf
       -0.6053013518255617 -1.1296914997829068
000140 de db 4b e5 8c 45 f5 bf 7b 6a 29 4f 09 26 f3 3f
       -1.3294800717246669 1.1967862217194625
000150 a2 39 e0 33 47 12 ea bf 11 a6 a6 8d c1 77 e7 3f
       -0.8147312176895876 0.7333686606045281
000160 ab 8c fe ae d8 dd da bf 93 2d 30 bb be 58 f7 bf
       -0.41979043092050955 -1.4591662704504855
000170 07 cf b3 3e 49 c4 dd bf 51 0c 42 e4 ec 21 e2 3f
       -0.4651053535774143 0.5666412790454932
000180 f4 32 a0 ec 3b ec d0 bf 94 65 3f 51 3c 26 f5 bf
       -0.2644185839460953 -1.3218348668800433
000190 3b 99 b6 a1 69 79 f0 3f f9 8d ea d6 4f fd fe 3f
       1.0296417538571194 1.9368437190213383
0001a0 0e be 87 ea 30 9a ef bf a7 b2 b8 ac 60 d8 fa bf
       -0.9875721531552146 -1.677826571172014
0001b0 73 19 a8 0c 9d 2d 00 40 c9 fa 43 9e 74 70 b5 bf
       2.0222722042846555 -0.08374718536286276
0001c0 4f be 4e 2e 3c f3 d6 bf 43 cd 73 87 0a 59 ed 3f
       -0.3585958912108013 0.9171192784837462
0001d0 fe 3d 7c 0a ee 8d 00 c0 95 fb fa 57 20 eb ef 3f
       -2.069301683346338 0.9974519461028303
0001e0 fb 6e 59 33 83 15 d6 bf f9 7f 93 95 fe 31 d4 3f
       -0.34506301893792085 0.3155514202790069
0001f0 d0 94 d6 93 6d 5f e0 3f e2 3f fa 09 c2 86 d1 bf
       0.5116489303078655 -0.2738499734341514
000200 36 fa 8d 62 e4 17 d8 bf 3f 8a bd 2c 29 84 fd 3f
       -0.3764582598159082 1.8447658298179161
000210 e9 da 16 38 09 fd c2 bf 43 ea aa 80 06 bf 0c 40
       -0.14834704626783626 3.593274121490397
000220 03 ab 30 fd 89 00 d7 3f 7c 0a f9 58 3c 65 f6 bf
       0.3594078991470015 -1.3997157550335535
000230 d3 1a e6 9f 32 96 de bf d1 e1 0a 30 97 0f e1 3f
       -0.47791734328386076 0.5331531465845335
000240 80 89 4f 94 e4 6f f7 3f cd 75 4b 17 94 63 f6 3f
       1.464817599619522 1.3993111524535948
000250 91 e3 1d 6b 4e 9b 8b bf 3c 30 e2 64 37 13 f2 bf
       -0.013479817050880335 -1.1296914997829068
000260 1d 8b f1 ff 09 e4 ea bf 64 78 b2 03 10 ac ba bf
       -0.8403367995163965 -0.10418796625387611
000270 7b 9c bb c9 52 b6 c5 bf c9 fa 43 9e 74 70 b5 bf
       -0.1696265683196748 -0.08374718536286276
000280 c0 a5 a7 64 91 b5 ef 3f 34 a1 ae e9 f3 cb e8 bf
       0.9909140554347502 -0.7748965801338614
000290 c4 ab 4f c6 34 c4 02 40 86 3f 06 84 c0 54 f4 bf
       2.3458037846625945 -1.2706914097979918
0002a0 59 18 c2 81 c1 1a 11 40 bd 61 04 bc 55 bb 01 40
       4.276128795119882 2.216472119220468
0002b0 88 2d a0 c6 8c 5e e4 3f 9f cf b5 09 7d 46 f3 3f
       0.6365417365463353 1.204709089212862
0002c0 fb d0 96 37 9b 45 fc 3f 42 e7 dd 9f bb f6 d2 bf
       1.7669937297296758 -0.29630938159936104
0002d0 d4 e6 ed 1f fc ef fa 3f 8d 60 6b f2 38 7d e3 bf
       1.6835900542486586 -0.6090359434847571
0002e0 bf ac ec 2c c5 0d dd bf 53 a7 57 0d 1e 7b e9 bf
       -0.45396546733054416 -0.796278978404397
0002f0 71 22 e9 8e 7a c4 fe bf be 35 33 c8 27 11 f5 3f
       -1.922968443150378 1.316688329726602
000300 b5 5f 8d 1f 5e 81 f7 bf 0c a5 a5 e4 40 e8 d1 3f
       -1.4690839035520018 0.2798006279832215
000310 81 74 e6 45 fc 9d f4 bf 7c 3c bd 2e 9a b5 dd bf
       -1.288570664451328 -0.4642091232717076
000320 48 15 53 fa 55 b1 ec 3f 4b 09 1c 51 d5 18 ee 3f
       0.8966474427367439 0.9405314048929453
000330 4e 04 30 f9 55 d1 d3 bf 69 91 48 38 05 6f d2 bf
       -0.30965184530947887 -0.28802614685471056
000340 06 70 b0 7c 17 dc f7 bf a6 62 5f 52 65 57 d8 bf
       -1.4912333365127792 -0.38033421558570024
000350 99 31 f0 b2 ee d0 d1 3f a7 85 79 2d ad 37 f2 bf
       0.2783772227710642 -1.1385928894381807
000360 e6 9b 17 2d da d1 c2 bf bd 73 75 34 e7 89 cd 3f
       -0.14702918245094948 0.2307709699770423
000370 42 51 8b b2 a3 74 97 bf 8e 30 6c b4 8e 18 c0 3f
       -0.022905881664727852 0.12574943360994378
000380 14 26 e2 7d f3 4f dd bf f2 00 4e 26 14 61 e0 3f
       -0.45800483029651784 0.5118504284037313
000390 6d a5 30 f1 05 f1 f5 bf 26 4c 9a 46 9a 46 13 40
       -1.3713435574994393 4.818947890441484
0003a0 cd 6a 5a 71 44 a9 e7 bf 47 70 bc da af 70 d0 bf
       -0.7394125188760313 -0.2568778644651996
0003b0 d7 95 1c 68 47 55 c7 3f ba 9d bb c4 5d 78 bb 3f
       0.18229000648095336 0.10730539372490613
0003c0 a7 fe 82 e3 af 37 bf 3f a7 6c e5 1b 23 3a c2 bf
       0.12194346718296832 -0.14239920484655963
0003d0 d1 b2 57 b9 7a 4e e8 bf db 35 b5 d0 19 9f e1 3f
       -0.759580003735744 0.5506714893651251
0003e0 88 11 ba de 35 03 00 c0 48 c7 40 35 63 f5 e7 3f
       -2.001567592671737 0.7487045326326802
0003f0 75 b3 47 3a c7 7d f2 bf b8 dc 4a 85 4d ee e0 3f
       -1.155707576424189 0.5290896991126806
000400 03 60 8c 28 37 65 cc 3f b9 8c 77 c5 4b 2b e3 bf
       0.2218388507833425 -0.5990351540352982
000410 c4 8d 35 f3 27 ea d4 3f 66 e2 5a 91 df 60 e4 bf
       0.3267917513932981 -0.6368253554310968
000420 3f 45 c0 ec 47 af ed bf 1d 55 ab 55 cb 30 e1 3f
       -0.9276466011089396 0.5372063325145607
000430 60 69 6a 67 ab ca ec 3f 3c 30 e2 64 37 13 f2 bf
       0.8997399349057495 -1.1296914997829068
000440 c4 67 a2 e1 ee 5e f9 bf 82 f6 0e 78 2d 96 e4 3f
       -1.5856770337909305 0.6433322281734066
000450 a4 19 61 62 43 19 ec 3f b8 dc 4a 85 4d ee e0 3f
       0.8780838891478209 0.5290896991126806
000460 40 62 89 86 aa 1c e8 3f 17 6e 38 b7 b6 0d ec 3f
       0.7534992816609432 0.8766740396999378
000470 cf 7d cf 01 37 42 bd 3f 39 f2 26 cc be 7c d4 3f
       0.11429160875513066 0.3201138490365199
000480 11 93 bc c8 63 15 f0 bf 94 65 3f 51 3c 26 f5 bf
       -1.0052221146845037 -1.3218348668800433
000490 d5 c3 99 f7 a8 bf f2 3f 3a d4 e3 2b c3 d1 d9 3f
       1.1717919990444348 0.4034278801548826
0004a0 59 10 de ad 12 a5 bc bf 25 78 09 eb ef 09 cc bf
       -0.11189381356058571 -0.21905325867095474
0004b0 60 70 e5 d6 56 37 ca 3f c9 fa 43 9e 74 70 b5 bf
       0.2048138188646389 -0.08374718536286276
0004c0 cd 64 43 06 1a 30 fa 3f dc 16 bb c0 08 cf ea 3f
       1.6367435688646765 0.837772728373888
0004d0 10 23 1e 69 9b 20 98 3f de da 0c b9 94 d0 f1 3f
       0.023561886111141794 1.1134230831645975
0004e0 15 f0 14 ad bb 3d b4 3f bc cf 09 f6 16 9a e9 3f
       0.07906697250012969 0.800059776824575
0004f0 77 54 f3 b7 ab 78 8b bf c7 92 a7 02 18 b5 e0 bf
       -0.013413754988883959 -0.5221061755988438
000500 01 60 03 a5 6e bf 02 40 2f 74 90 ca 76 ec d4 bf
       2.3434727565436337 -0.3269326189200141
000510 c7 9f a3 46 4f 34 cc 3f c3 5a a4 40 79 f8 d8 bf
       0.22034636449029518 -0.3901656276006344
000520 87 b3 72 51 c5 2e fa 3f 43 fa 1e a2 93 18 84 3f
       1.6364186460079695 0.009812501320877525
000530 8a 0e 59 10 61 c1 f8 bf b4 15 e9 18 97 a3 ef bf
       -1.547211707934283 -0.9887195097477872
000540 e3 d8 98 c7 4e cb fa 3f 79 62 5d a8 37 0f db 3f
       1.6746356770286688 0.42280379716752453
000550 a8 ee b8 c2 67 d8 ec bf 04 b1 26 45 49 6a 82 3f
       -0.9014166644260131 0.008991787360024713
000560 37 28 07 e2 5e c0 d0 3f 72 99 9a fc b3 29 d4 3f
       0.26174137185137475 0.3150453535876273
000570 a3 5a e8 18 2d 6a e1 bf b8 dc 4a 85 4d ee e0 3f
       -0.5442109571912009 0.5290896991126806
000580 5c 71 69 4c 83 61 c0 bf d2 9b f5 c8 8f 8c fc bf
       -0.12797585707711334 -1.7843168115593824
000590 5e 41 7f 72 a3 bd e1 3f be 1f 49 6d af bf f0 3f
       0.5543992267867386 1.0467981595011078
0005a0 36 81 e4 33 bd a4 c0 3f 0e 0b de 7b 26 2d f3 3f
       0.13002743753259843 1.1985230291908837
0005b0 62 0f 80 b2 fd 80 be bf fa fb 7a 86 7a b2 fc 3f
       -0.11915574653545272 1.7935738804951584
0005c0 59 a9 fd 1e e4 1d d5 bf 8a 6d 3c 5e 21 38 9b 3f
       -0.3299494078297776 0.026581307770454234
0005d0 c0 8d de 3d 6f 18 f1 bf a0 57 1b aa 55 25 d9 3f
       -1.068465463330412 0.39290372478478197
0005e0 ea e2 35 f6 2a 1a ba 3f e8 b6 1c 0e 9f b6 e5 bf
       0.10196178923605329 -0.6785426402691117
0005f0 dc 03 7d a2 4e 09 95 bf d2 d6 9e b9 54 09 e8 bf
       -0.02054331652402995 -0.7511390328788485
000600 5b 62 00 05 88 9b c4 3f 0c 6e 2d 46 f0 43 f9 3f
       0.1609964394017592 1.57908656514235
000610 ac 26 1c ab c0 05 e2 3f 3c 70 0b 97 52 a9 f0 3f
       0.5632022230140215 1.0413385296042312
000620 07 c1 5f e2 9a 6b e8 3f f8 30 7e cd 0b 63 01 c0
       0.7631353780143691 -2.173362355626633
000630 e7 fc eb e0 4e ab cf 3f c3 5a a4 40 79 f8 d8 bf
       0.2474154089213478 -0.3901656276006344
000640 96 b8 77 26 1a 89 e5 3f cf 34 86 06 cd 41 f3 3f
       0.6729861022302142 1.2035646681645635
000650 3d 4a 43 b2 6b 10 82 bf 20 51 3e 03 8a e1 d9 3f
       -0.008820382478380679 0.4043908149408413
000660 ad 22 df 0a 36 fe f8 3f 40 52 1c 6d f9 a0 e2 3f
       1.562063257663037 0.5821501856867783
000670 47 23 67 1d 53 14 e4 3f 51 ca cf b6 b8 b3 fc 3f
       0.6274810385012665 1.7938773289757999
000680 01 6a 9a b7 75 64 da 3f 92 f7 c5 29 b4 8f 04 c0
       0.4123815815925412 -2.570167852739311
000690 d5 17 1a 23 ab d4 e8 3f 6a db db ac 6a 4a e6 bf
       0.7759605107864852 -0.696584069838406
0006a0 00 cb 1c fd 8d b8 b1 bf cc cc 80 23 9c 20 d0 3f
       -0.06922233037475323 0.2519903513632016
0006b0 98 fb 3f 51 f0 34 ca 3f 83 a4 bb 46 2b dc d8 bf
       0.20474056212694047 -0.3884380522491215
0006c0 b8 d4 57 df 9f af d3 3f a7 d3 b6 df 7f a9 e5 3f
       0.30759426890228836 0.6769408578316999
0006d0 58 48 ec 9e 90 7c f2 bf a6 43 ca bc 47 ea f7 3f
       -1.155411358635794 1.4946973204243732
0006e0 a6 3d 0e 96 fd 84 f1 bf cb b6 fd ab 91 52 e6 bf
       -1.0949684011028267 -0.6975792273712725
0006f0 9d fc 37 9a ca 75 d4 bf b8 dc 4a 85 4d ee e0 3f
       -0.3196894174615837 0.5290896991126806
000700 35 2c ef 0f 72 fc ce bf 15 c5 ab b5 d2 a8 e3 bf
       -0.24207902696648068 -0.6143582866917848
000710 b8 bf 58 cd dc 1c bb 3f cb a1 e4 64 60 9f d0 3f
       0.10590915692659919 0.2597275719913596
000720 73 08 e9 0d 52 ec f2 bf de 3b 76 a0 c3 5d 61 bf
       -1.1826954406137957 -0.0021199055515306172
000730 ba 16 5a 8a 75 3d f5 3f 27 ed 27 0f 3c e9 f2 3f
       1.327504673421045 1.181942042544344
000740 ea 44 f3 77 fd d0 01 40 e8 b9 ef e6 8a 2c d1 bf
       2.227045952903258 -0.268343663715227
000750 93 3d 6f d0 a3 70 09 40 ed 58 b6 dc 48 9f d3 bf
       3.179999950785438 -0.3065969615357876
000760 93 6f dc 4d d6 1a ee 3f 12 46 31 cd 88 ee f3 3f
       0.9407760163044138 1.2457359328585693
000770 ad 63 99 23 18 12 f0 bf f4 a6 27 42 2e c7 c5 bf
       -1.0044175520508631 -0.17014101247996616
000780 1e 1a a2 f7 ce a0 f3 bf 90 3f d7 f1 87 4e bd bf
       -1.2267598794147783 -0.11447953848187198
000790 94 0e 52 82 ee 65 f5 3f 3c 30 e2 64 37 13 f2 bf
       1.3373856630941292 -1.1296914997829068
0007a0 0d 89 1e 4c 65 4f ed bf a3 70 75 94 bb 4a 9c 3f
       -0.9159418570236838 0.027628832756236076
0007b0 e0 f3 76 2c c0 0d f7 bf c0 8a d4 91 7b bc ea 3f
       -1.4408570992375118 0.8355081413504521
0007c0 23 6e a7 86 72 93 fc 3f 28 88 1c 22 01 77 e6 bf
       1.7859978923724007 -0.7020269075621899
0007d0 6b e6 54 cf eb 97 d5 3f 6a f8 64 4a bb 73 8e 3f
       0.33739753005247647 0.014869178016507518
0007e0 30 dc d3 36 a3 6d 12 40 2a 4e 1c 6d f9 a0 e2 3f
       4.607067925148883 0.5821501856866622
0007f0 ff 9f 70 bf 15 a8 ed 3f c3 cf c6 f1 81 31 64 3f
       0.9267681826650004 0.0024650133111325536
