results/model_new_new.npy (npy, 200104 bytes, 1 tensors)

array f8 [596, 13]
00000000: 8dbe 352b 5599 f0bf de2b 396b f9c2 843f
00000010: 06a9 5b97 8d53 e73f 3c30 e264 3713 f2bf
00000020: b652 c846 eba6 ecbf 452f 2d39 8e9f ef3f
00000030: d820 6cf3 0bf6 e9bf fe4f 2274 157d c5bf
00000040: a14a 6555 f6e5 d0bf 2923 df4c b12d 1840
00000050: ea54 8b19 7d6a bd3f a30d 65c0 67f0 d1bf
00000060: b670 2127 7dca d53f 7a98 805d 8a36 b4bf
00000070: 2b73 4464 db8b dabf 441f 9452 95b2 e33f
00000080: 4fff e526 4aa6 d23f 1e39 015a 75ac e7bf
00000090: b592 9699 07d8 e23f 88d6 096d 6497 ecbf
000000a0: d1a5 4eb9 eff9 df3f 4b8d 270e a4ea b0bf
000000b0: b8dc 4a85 4dee e03f 4db6 d752 eeaa c1bf
000000c0: ce5f 54bf afff e13f d7ea e06e 866d 0140
000000d0: f20d 08a9 3f7b e6bf 9465 3f51 3c26 f5bf
000000e0: b7d3 3524 38e0 d0bf 204b bb0c 2962 d23f
000000f0: 4b59 7998 7fbc f7bf 2b0f 77b1 de73 e5bf
00000100: 8fb0 20d6 54af fc3f 9051 107b 818e dbbf
00000110: fd03 166a 12ff cebf c35a a440 79f8 d8bf
00000120: bc54 57f6 cfba c43f 143f c5b9 735c db3f
00000130: 4387 8d8a 4813 be3f cfc6 3c62 e1ae e03f
00000140: d08f d681 10db eb3f 4e19 bf18 899d e73f
00000150: 7099 57ac a816 de3f 0eef 1365 806a d4bf
00000160: 0a7a 8467 1482 f13f c04b 4343 3e16 f03f
00000170: c88a 36be 1b4a b0bf f84f 0af9 ab8f c9bf
00000180: fca2 ec5c 512c d23f d081 20c4 ed9e e23f
00000190: c953 482a 8333 f0bf dc78 c3ba 873b b93f
000001a0: 5ecb 38ae ea8f a53f 537c f8d0 0913 f23f
000001b0: 55bf 9156 4558 e8bf cc7a d8d4 44cd b43f
000001c0: bc2d 1905 07f2 e73f da6e 03f7 ecdb f13f
000001d0: 2471 a764 2be1 943f 5d31 d623 2bae e43f
000001e0: 1f12 4684 775c c23f 6adb dbac 6a4a e6bf
000001f0: 6c04 b369 c090 eabf 0efa 27f5 012c a43f
00000200: 0cc7 9012 3ee0 c43f 0ff0 8d6e 2aa9 fd3f
00000210: 7251 8d84 2711 e43f d3ed fbfa 53ce ecbf
00000220: 4836 5585 e195 ba3f b0f6 5d79 49db f5bf
00000230: 341c 5bdf 6135 01c0 1e5a 2e05 8038 bdbf
00000240: c3ed 3f83 4c13 e0bf fa44 ba8d 7bf6 d4bf
00000250: cd95 7141 585e e2bf 2783 03df 3a23 d93f
00000260: f1a5 e0e7 abd4 e3bf d335 8cde 07a6 e23f
00000270: 7731 9a63 613b d1bf e0c4 b01e 82c0 d93f
00000280: 0590 5b8f dc6e e13f 3c30 e264 3713 f2bf
00000290: ec81 3811 0d9b e93f 35dd 383b 9f27 e73f
000002a0: e93e d21a 0b36 ecbf 2c4b f106 f83d e2bf
000002b0: a2c2 7aba 2f81 d8bf aee5 fa37 07b0 e0bf
000002c0: 122d 2cf5 b952 bbbf 5b6e 8fbd da53 eabf
000002d0: 7586 e923 feeb e1bf 04a5 70dd 5256 e7bf
000002e0: f47f 88f8 abe9 a3bf bba2 8478 d955 f33f
000002f0: 5f9f df25 6c92 dfbf 6414 c5ca e381 e8bf
00000300: 918c 44e5 22ba 00c0 c954 4baf 29a5 f1bf
00000310: 0409 f228 18af d93f 92c2 391c 1364 96bf
00000320: c9fa 439e 7470 b5bf 52f4 e4c8 d6f3 ef3f
00000330: 5ecb 45f4 e154 e33f 76fd 4c0f d000 e53f
00000340: cfc3 039c 8774 e4bf 3234 9323 dddb f23f
00000350: 3934 5278 a466 adbf 1b50 40ea b12c f83f
00000360: b6ae 890a 7648 eb3f 446d 8d94 4995 dd3f
00000370: 3e56 9046 fc97 f0bf a34e 3f1e 2151 dbbf
00000380: f79f 0c46 7684 d4bf 7559 3568 9654 cebf
00000390: df90 6654 f305 e23f 0104 3ceb 8269 d3bf
000003a0: 13ba f562 7491 f93f ca28 718c e835 673f
000003b0: a097 55e3 1009 cdbf 88ac 650b b59a f5bf
000003c0: eb31 3f96 af5b db3f 53ea 6c4b 3bed f7bf
000003d0: 1856 f617 f1cd e73f 2068 12ae e23d edbf
000003e0: ab66 6a13 7185 0140 e12d 52af 6d1b ed3f
000003f0: 1f24 0049 ed81 dfbf 7517 71d4 e4e0 e5bf
00000400: 92e6 33bd 18c3 dabf f039 8141 eb87 d4bf
00000410: d844 decf 33bb e5bf 9465 3f51 3c26 f5bf
00000420: ea41 43d1 5999 fcbf e1c7 929d da8d e03f
00000430: 5380 6aed f541 edbf ba49 bc6e 80aa f53f
00000440: 676e e91f 4706 fd3f 5468 f2e6 278a d3bf
00000450: 31e8 2609 4adc cfbf c9fa 439e 7470 b5bf
00000460: b42d 48c0 f010 c43f 29b8 3e0f b263 b73f
00000470: 48f2 8f79 de94 d6bf 9263 9c34 a558 e73f
00000480: 9465 3f51 3c26 f5bf ae2a 28b1 cab0 d9bf
00000490: 8f28 4c12 40d6 d93f 7ac9 7894 0889 0640
000004a0: 0cb1 77d3 4900 d93f c23d 3fc1 4437 cbbf
000004b0: 7d6c b7d7 12be e2bf 7120 dc2a 879e d7bf
000004c0: 60a0 0eac 8be4 dcbf ab74 ec3c ecfc e33f
000004d0: 4cf2 6e94 d66f d4bf 2a6c f47c 4a39 e4bf
000004e0: 071a 5a0b ef4b e0bf 41ec c90a b2fc c03f
000004f0: 7738 1b90 85a2 df3f a641 ccae 2afb f63f
00000500: 3b0a 6e5f 4a51 e8bf 87f5 a0a2 ce61 e2bf
00000510: a6b4 6d70 6d4f d83f 428a 250d b5f3 e13f
00000520: 0d64 18a6 deda cb3f 6604 97a6 5363 e1bf
00000530: 78e1 1f71 1250 cb3f d7e1 94d6 cc58 e83f
00000540: 7115 c340 b296 adbf 5ce0 6557 6925 ecbf
00000550: de4e 4037 14b1 d23f ceb6 4a38 1c89 eb3f
00000560: 3c30 e264 3713 f2bf 4fbb e9d0 1a10 0040
00000570: 237c b642 4eb0 f13f 4931 4548 fead e0bf
00000580: eecd 91ef c7ec de3f 1acf b5a3 cf1e bdbf
00000590: fca2 ec5c 512c d23f f8aa f844 86d0 f63f
000005a0: 919a 1e27 47a8 d73f 5597 3a2e ce36 efbf
000005b0: 44c5 c4d6 9200 0340 9465 3f51 3c26 f5bf
000005c0: 7115 c939 d779 f3bf 3c30 e264 3713 f2bf
000005d0: 1d2a fb20 bb92 e63f 089c e13e c9ea f03f
000005e0: 6253 d4ea 32cc b3bf e9c0 1b27 45b8 e2bf
000005f0: 1240 9d08 b504 d7bf 6adb dbac 6a4a e6bf
00000600: bfbf 7f6d 57a5 fcbf 832d 4a3c 348f ee3f
00000610: 0276 4e52 05e9 d4bf 0049 be86 339b d43f
00000620: 9465 3f51 3c26 f5bf 534f a5d2 c5b8 f0bf
00000630: 7b33 c9bc 3b6c ebbf 64a6 ac9a 6ad5 b8bf
00000640: dc5a 219f e543 c9bf 9e4e acec 8659 ebbf
00000650: ea66 8b97 d42a d5bf 13dd 1ca2 0cb3 d0bf
00000660: 1f24 0049 ed81 dfbf 8420 657f f9de ea3f
00000670: 64bc 0aad 324c d4bf 5bd8 aa84 7df0 c5bf
00000680: 5cfe e99a 6315 d4bf 9465 3f51 3c26 f5bf
00000690: 6d20 1d3f f7fd 02c0 3c30 e264 3713 f2bf
000006a0: cf64 0fea 7873 fbbf d9a5 b22d 7c00 a03f
000006b0: 52e0 2ffa 9de6 e2bf d976 1a76 0fcf d9bf
000006c0: c19e e85e 5175 d4bf 6adb dbac 6a4a e6bf
000006d0: 3bd4 46da f1c3 c4bf a497 e45d cc39 0640
000006e0: 7a68 9d73 9ac1 0340 efaa 05bf 7cc5 b1bf
000006f0: 0372 6fff 99d5 d73f d284 ebca 7945 efbf
00000700: 5f9d 6f67 7ae1 cd3f 6515 a65a 32a9 d93f
00000710: 61ef 590f 293d d03f 20c9 f512 7022 debf
00000720: 5b7d b470 651a d8bf d0d7 587d 9d8c abbf
00000730: 97aa ac0c 6ed5 923f a091 5286 8da9 d63f
00000740: de61 6131 9808 d1bf 7baf 6f2b 717a ca3f
00000750: c2e9 2c9c 8558 e53f ff86 5084 f4ee ff3f
00000760: f2cc 54e8 f6c0 d23f 3c30 e264 3713 f2bf
00000770: 11a4 0a85 57d0 f03f b754 3d6e 46e7 ed3f
00000780: eed8 85fe 666c e03f eee9 0dc0 3768 e1bf
00000790: 98b1 4434 a3e9 d5bf 641c 2fcf 5445 f23f
000007a0: bebe 02b5 2595 a53f 9edd 10f5 ec1e f7bf
000007b0: e60c 46e6 709a ebbf 0a8b 9a52 8775 ee3f
000007c0: 9465 3f51 3c26 f5bf 0f78 c6cd f239 f6bf
000007d0: 3c30 e264 3713 f2bf 8920 0b26 22c9 e7bf
000007e0: 66b6 65f2 d7a6 ea3f 5014 68c7 e56f f33f
000007f0: cbc5 817f ad81 e1bf 3bc9 46ec da51 d8bf
-1.0374347389114604 0.010137508949943749 0.7289493519031403 -1.1296914997829068 -0.8953758604498805 0.9882269970634999 -0.8112849954932484 -0.1678797547398289
-0.2640357812826242 6.044621659392569 0.11490613816870945 -0.28029817379521144 0.3404839403281231 -0.07895722182056089 -0.4147861937688499 0.6155497181762049
0.29139951513933665 -0.7398020513444725 0.5888708114403786 -0.8934805040032225 0.4996299085274503 -0.06608033509796944 0.5290896991126806 -0.1380288986687667
0.5624617325693124 2.1784790670766188 -0.702545004024101 -1.3218348668800433 -0.2636852601638639 0.2872412323314837 -1.4835201221481664 -0.6703942743410826
1.7928055157053995 -0.4305728627962475 -0.24215917758922947 -0.3901656276006344 0.16195106056571784 0.4275178255238512 0.11748174078595945 0.5213477057170283
0.8704912696743978 0.7379804118470845 0.47013298826495653 -0.3190003382767238 1.0942577403690188 1.0054304721313514 -0.063630804003462 -0.19969701442880683
0.28395494532246324 0.5819004850964635 -1.0125762607251423 0.09856460866601274 0.04211362244350057 1.1296480334201717 -0.7607752505118507 0.0812571544306408
0.748294362981532 1.1161927842103325 0.020390203493534945 0.6462608051238409 0.14344686468770448 -0.696584069838406 -0.8301698746146378 0.03939825170163057
0.1630933371212041 1.8538002317936877 0.6270940388590545 -0.9001865293534429 0.10384950165936246 -1.3660368672275744 -2.151065583198511 -0.11414337278834139
-0.5023558200331809 -0.3275441059168568 -0.5740166929432974 0.39277526644404975 -0.619710877309613 0.5827674242624944 -0.2692492935828094 0.4023747729980425
0.5447829055742665 -1.1296914997829068 0.8001771293966704 0.7235866696054588 -0.8815970920422532 -0.5700645576092476 -0.38288491450206597 -0.5214878171311079
-0.10673105464609403 -0.8227361395215199 -0.5600577069673834 -0.7292875599861479 -0.03889214905598229 1.208459349416599 -0.4933119172915123 -0.7658556900356754
-2.0908868705315133 -1.102822956793988 0.4013119125230704 -0.0218661294915728 -0.08374718536286276 0.9985155032842477 0.6041116496038332 0.6563492106287601
-0.6392248198663938 1.1786776914261847 -0.05742372483027975 1.5109118605078098 0.8525953489128912 0.4622367811877732 -1.0371058231734334 -0.42682674363934775
-0.3205848392558432 -0.23695640648174857 0.5632263802004011 -0.30331490490067387 1.5980113854999487 0.002833322712409635 -0.2268391714125615 -1.3502703137590135
0.427471062398381 -1.495417875891367 0.7438893764507979 -0.9138043784944365 2.190157081303217 0.9095982002485777 -0.49230510834655833 -0.6837028645756918
-0.41815775372342856 -0.3207958354659288 -0.6791018543173335 -1.3218348668800433 -1.7874391722035576 0.5173161580662474 -0.9143018376380588 1.3541263890843838
1.814032673507336 -0.3053073649731506 -0.24891019293664976 -0.08374718536286276 0.15676698101775133 0.09136498329346011 -0.35283624526326607 0.7295709636265306
-1.3218348668800433 -0.4014155130431999 0.4037017992674316 2.8169108962403557 0.3906426015007731 -0.21262416301622805 -0.5857023442471384 -0.3690507811120432
-0.4514493160481887 0.6246243657984868 -0.3193260621590397 -0.6319935265086134 -0.5092692586629831 0.13271165396494847 0.4942945391929991 1.4363200023691234
-0.7599231590141423 -0.5744393516867355 0.3798478696761073 0.5609994179506617 0.21761687383767062 -0.5433748487195202 0.2133811046949281 0.7608398619695959
-0.05779034653236693 -0.8795668322554877 0.29205804248452505 0.8604870891046745 -1.1296914997829068 2.0078636475877043 1.1055433851213443 -0.5212394153145762
0.4832019652887699 -0.11375138995009274 0.28395494532246324 1.4259092992967322 0.3696458704020325 -0.9754401114375734 2.3752800730514156 -1.3218348668800433
-1.2172462708707281 -1.1296914997829068 0.705411495605691 1.0573208290386464 -0.0773345778764685 -0.5849939121090105 -0.35966230241047115 -0.696584069838406
-1.7903665807061626 0.9549809625181499 -0.32672246015303597 0.32197273405576254 -1.3218348668800433 -1.0451105335568698 -0.8569620787835527 -0.09700647617560204
-0.19738455076249906 -0.8546785948296536 -0.33073916243811985 -0.26092830497096137 -0.49230510834655833 0.8397185791191224 -0.31715075396181747 -0.17140168168924927
-0.31380548599552127 -1.3218348668800433 -2.3740067415965798 -1.1296914997829068 -1.7156914847349076 0.03125370080790519 -0.5906515013184708 -0.4032629636147767
-0.31966051357674635 -0.696584069838406 -0.16222975881615462 2.778221829928002 2.4695328743374008 -0.06941966689707234 0.3724122042165449 -0.9772309268265877
0.2334435467775888 0.4009519467584453 0.2537329339900137 -0.4708519158513287 -0.3766110993037352 -0.05380718379130622 0.018392295383061166 0.35409868352351204
-0.2661495668631043 0.20686163540755928 0.6670558977414702 1.9958386581933494 0.29302761734579896 -1.1296914997829068 1.0508647152839823 0.9344818261257818
0.5132327052258725 -0.543971896272806 -0.34238510231332375 1.1419265835882237 0.042153528543506166 -1.4450501988302231 -0.8626026628047867 0.9518467534402089
-1.3218348668800433 -1.3891475713821853 -1.1296914997829068 -0.7433024161373548 0.8328666433641956 1.2148187436407802 -0.5470798006410232 -0.3799960429561399
