results/without strategy/model.npy (npy, 157960 bytes, 1 tensors)

array f8 [599, 10]
-1.10508266792768 -1.311590211167495 -1.4834011275949635 -1.1224227834645764 -1.8149998558065128 -1.0436468314213647 -1.3603133977728614 -1.0064790730625641
-0.24660110223859483 -0.23515677049190986 -1.4991490722468892 -0.22703328739373158 -0.0690697014303632 0.13736354005836965 -1.030981064935347 0.5359689881645592
-1.3411750955622204 -0.5491225244723275 0.03671325289714139 -0.2297497574079235 0.3833036382947586 -0.49613387750284205 -0.6781274981639022 0.7317131821372622
0.4526205556139665 -1.6294872444572785 -0.5013420618827018 0.006812848775417156 -0.37704678256496904 -0.3328149645037655 0.5186981645491842 0.865678199716601
-1.1331471408368072 0.21805451536494314 0.878836812400774 -0.8787705289345925 -2.2257273180872867 1.6794111764468254 -0.402799410783939 -0.31037943195688483
0.8564693682514635 1.0238767284475216 -1.7648463458241683 1.084471502035991 0.048357648737279685 1.6548685898354951 -1.1826593894421507 0.69147706748199
-0.43975427236816633 -0.3085900586636438 0.9095366330533368 -1.311590211167495 -0.41146262336960876 -0.5803084283344637 -0.9716699507327682 0.3778649753574647
-0.6014084490144235 1.7307254192926718 -0.08675996036686241 -0.22628022774340645 0.007111420659899673 -0.27188338574526016 -0.11780822157686366 -1.1224227834645764
-0.7613850912856112 1.1625056272733114 0.19670833268016896 -0.09465765629745722 -0.47560814632564524 -0.31757079883520595 1.8905450625215758 -1.311590211167495
1.259538348641619 -1.1224227834645764 -0.2970060266736356 -0.41301813221548417 0.8088672233984023 -0.6480022932454729 -0.5050822695623217 -0.3218627786725137
-0.34463263684029755 0.3274770194980521 1.3530209890208547 1.4626530329120724 -0.4014183006350672 2.037128759401047 -0.14846162353681502 0.8604866285909589
-0.24669399174274378 -0.2833640272477682 1.5721333189252562 1.0151785275551042 0.4242196628761738 -1.1224227834645764 -0.5283193720653532 -1.2666490628438658
0.9545165630296343 -0.8431612810969455 0.9985195817029704 0.35568595614578424 0.17689849694955717 0.8004416930233633 -0.3752758712778725 0.5394522273620247
-0.03999119845929637 -0.8447638823410426 0.27826904329427654 0.11592471747982823 -0.590450073070411 -0.378524641757845 -0.09331846601215764 0.5802684829340647
-1.051266743819471 -1.1224227834645764 -0.4174817273982561 2.1309096880134417 0.16924588820140077 -0.6062724662559595 -0.49743526335909216 -0.322249242957673
1.2303934530839726 1.9339259968171134 0.5321352802717771 0.6367382989325019 0.030687879298006607 -1.2682613765596085 -0.45253969073069433 -0.10224341069023832
0.22840251750022741 -0.07572090324707405 0.4878132746695782 0.552542967589525 1.049567567871487 -0.9108635421828288 0.21084538868956765 0.3231804098408578
0.4383516961911455 -1.0039341326065068 -0.29318445084978945 -0.28972740798392876 -0.5941219479539765 0.31932245616146354 -1.3428899748728227 -0.024096670780469426
0.4127053739597278 -0.7350403821124074 -0.8362698119524201 1.6675336972746957 -0.4522143312162636 -0.19431310545416886 0.3634473635814732 0.050221866051946944
-1.5608956286648137 1.5057779150284045 -1.0532227327615729 1.6282599089250889 0.5239933751836108 -1.5581750596380173 0.3783227641630214 -0.09877737126345439
0.20365162898595324 -1.311590211167495 0.02439637367346228 -1.1224227834645764 -1.200573782110105 -1.8908058673650772 0.7320310587206325 -1.0509010414342468
-0.42320016231585666 -0.32567391680040053 -0.6825655180232699 -1.311590211167495 0.4866272108992301 0.9792745464526396 0.3725852363021122 0.5316954270427963
0.8553068602333846 -0.31887083583356357 0.9006912686330272 0.22117380218699043 -0.5608174756400565 0.11341973191115783 0.9811528290597217 2.1020842233433465
0.18489677622515732 1.375646558100134 -1.7062061200320189 2.335027745732154 2.7424107028773173 1.101845164916796 -0.7666917005488116 -1.311590211167495
0.44941242770464096 1.036695439662436 -0.5949095775565707 1.2123800595067298 1.2353954958076934 1.8160757873894307 0.4448138422942912 -0.15245668904084528
1.5970869616905103 1.0002284947713007 0.8170884941464429 -1.1224227834645764 0.735642836682316 0.8391017257882251 0.29037348261544926 -0.7513733258311547
-0.46307826170945604 -0.3444435143027711 0.0036056867322901355 -0.49613387750284205 -0.6993312619467926 -1.1224227834645764 -0.8922977243722425 -1.735701709977173
0.11035689637640311 0.9246727746431748 -0.20242859364269483 -0.23763058281285288 -0.44984286371955223 0.2198367834540389 0.9945313758473454 -0.5572858245749921
0.5134668691110839 -1.4966719923029188 0.8388746929754481 -0.4711093047597944 -0.1805865574324609 -0.2179134553980732 -0.8068213986036008 -1.311590211167495
-1.4045098840110928 0.5285297965003528 0.08851621564579171 -1.407098553133524 -1.1272928728686826 0.5507202707932164 -0.46999061149099275 -0.312779610320468
-0.02531661817198153 -0.19441503404717073 -1.7835431005484679 -1.1224227834645764 -0.7896177807481412 1.5408776406921803 0.5884883207839542 -0.29067368065212523
-0.4215091649626027 -0.2837868300931011 -0.8718965846377646 0.19088808360933351 1.302760242577642 1.0956107080890785 -1.2447482057088217 0.07924323856588412
00000000: 5503 e229 6bae f1bf 717d 6b04 46fc f4bf
00000010: 13eb 1dd2 02bc f7bf 1540 b497 71f5 f1bf
00000020: 63f0 ee49 3d0a fdbf e975 1805 c7b2 f0bf
00000030: d8eb 3bfb d7c3 f5bf fe97 eecc 891a f0bf
00000040: 4adb a2fa 9f90 cfbf b40d 59f7 9d19 cebf
00000050: eb10 d2bc 83fc f7bf 22cf 3a40 6d0f cdbf
00000060: 72b3 c94c 8dae b1bf 6e53 1be4 2095 c13f
00000070: c214 4b00 e67e f0bf a5c8 7a6f a826 e13f
00000080: fd63 5a04 7475 f5bf 2061 8366 6992 e1bf
00000090: 98c6 0b59 14cc a23f 115d 2aa7 7068 cdbf
000000a0: b97b bafb 0b88 d83f fbfd 934e a8c0 dfbf
000000b0: 793b 6470 38b3 e5bf bc9c 6ac3 316a e73f
000000c0: 5aff f634 bcf7 dc3f 3817 8337 6112 fabf
000000d0: 38a7 fc81 fe0a e0bf 3e9c ed2a cae7 7b3f
000000e0: 9c6d 0bd4 8821 d8bf cd6f 0a23 d74c d5bf
000000f0: b47c a7e4 2c99 e03f 1c93 94c4 a2b3 eb3f
00000100: 2c33 77e5 5e21 f2bf 6068 1eda 35e9 cb3f
00000110: e107 f960 6e1f ec3f 69ce 4e5f e31e ecbf
00000120: 4ffd c71f 4ace 01c0 1904 f640 dede fa3f
00000130: cc90 0a2e 77c7 d9bf b3c6 66b1 41dd d3bf
00000140: 5e4e d572 3268 eb3f cd14 7d90 cc61 f03f
00000150: 827a 9c85 cf3c fcbf 6b04 2bca fe59 f13f
00000160: c417 ad6f 55c2 a83f 6256 887c 577a fa3f
00000170: c061 7f40 2cec f2bf bb9c d883 9420 e63f
00000180: 463e 861a ef24 dcbf 4730 7584 f0bf d3bf
00000190: 0e4c af91 ec1a ed3f 717d 6b04 46fc f4bf
000001a0: 8386 b953 6755 dabf 1245 29fb e291 e2bf
000001b0: c6e6 9c94 eb17 efbf bfb4 dd93 f02e d83f
000001c0: d3c2 81ee bc3e e3bf 927c 2323 0db1 fb3f
000001d0: 09c0 6098 e635 b6bf a2d6 f120 c0f6 ccbf
000001e0: 040f 9972 dd20 7d3f 5a81 8692 8966 d1bf
000001f0: 805f dffa ad28 bebf 1540 b497 71f5 f1bf
00000200: 437a 5744 445d e8bf 9ee0 2880 9f99 f23f
00000210: 4423 db17 bd2d c93f 0d14 1df2 7b3b b8bf
00000220: 5182 8b26 5d70 debf 015b ca78 1453 d4bf
00000230: a44f f22d ac3f fe3f 717d 6b04 46fc f4bf
00000240: dd93 f7ae 1127 f43f 1540 b497 71f5 f1bf
00000250: 84cd d190 2502 d3bf 0350 a19a e36e dabf
00000260: c9ad e983 3de2 e93f 251d 274e 6fbc e4bf
00000270: 79e8 b14a a229 e0bf 35ae 0c57 6699 d4bf
00000280: ae40 170c 760e d6bf 50e2 3b2c 62f5 d43f
00000290: 9d56 2a56 f9a5 f53f 7f0a dcdd 0667 f73f
000002a0: aa95 4f62 d6b0 d9bf caf2 ba29 0a4c 0040
000002b0: 989d e65c ca00 c3bf e230 0e41 1b89 eb3f
000002c0: c9cf 5331 ab93 cfbf d016 79df a222 d2bf
000002d0: 4dc6 5b44 7527 f93f b035 f7d6 2b3e f03f
000002e0: 57e4 973a 6a26 db3f 1540 b497 71f5 f1bf
000002f0: 76a5 1b07 fee7 e0bf 76c6 c6ce 3144 f4bf
00000300: b77b b651 668b ee3f 3413 f25d 2dfb eabf
00000310: 328e 7a56 dff3 ef3f 82ba 5207 8fc3 d63f
00000320: 5411 8e25 9ca4 c63f a87c bce5 379d e93f
00000330: 9372 8716 8504 d8bf adc6 4851 3143 e13f
00000340: 5663 05f3 b979 a4bf 8ae5 ef43 4e08 ebbf
00000350: 410a 1cf6 28cf d13f 07b8 5f06 3ead bd3f
00000360: 6243 388d f7e4 e2bf b51f 456b bf39 d8bf
00000370: 3796 a20f b8e3 b7bf 323e a335 8f91 e23f
00000380: 8c3b c113 fdd1 f0bf 1540 b497 71f5 f1bf
00000390: 2599 7647 05b8 dabf 76fa e560 1a0c 0140
000003a0: c95b 6769 d9a9 c53f 861b e183 9566 e3bf
000003b0: e048 00b7 fad5 dfbf 627e ea49 bb9f d4bf
000003c0: ad54 a30b b1af f33f 536b d362 5cf1 fe3f
000003d0: 1c15 3a91 4007 e13f 16d3 40ff 2860 e43f
000003e0: 54c7 dfb7 a46c 9f3f c5a7 f170 cc4a f4bf
000003f0: 6a23 f508 69f6 dcbf de64 25c9 9f2c babf
00000400: db67 7e2f 4b3c cd3f 01dc 11f3 7162 b3bf
00000410: 17ac 502b 5538 df3f 4ad1 ed96 6eae e13f
00000420: 6b34 af5c 07cb f03f 2c68 994c cb25 edbf
00000430: a290 7750 fbfc ca3f ed5b bee2 fcae d43f
00000440: cf5f d245 f40d dc3f 1221 ae3c 1d10 f0bf
00000450: bd1d 06b7 88c3 d2bf c5ee 82d3 e48a d2bf
00000460: 648a 0908 0c03 e3bf 5be1 8574 c76f d43f
00000470: d347 c332 7a7c f5bf e843 c733 ccac 98bf
00000480: 3d97 02cd c369 da3f 3230 4d68 7385 e7bf
00000490: 84f7 9ee8 b8c2 eabf 515d 6cd0 37ae fa3f
000004a0: abce d660 14f1 dcbf b60f 8e78 40df c8bf
000004b0: 2097 19bb b842 d73f e772 7930 aeb6 a93f
000004c0: 135b d9b1 6df9 f8bf 8560 4195 aa17 f83f
000004d0: d3d5 8914 00da f0bf 048a 2343 5a0d fa3f
000004e0: 1c7f 37c1 8dc4 e03f ff68 a9f8 48ee f8bf
000004f0: 5d66 daae 7036 d83f a550 294b 7949 b9bf
00000500: 2cca 22af 4111 ca3f 717d 6b04 46fc f4bf
00000510: 0729 46ec 5cfb 983f 1540 b497 71f5 f1bf
00000520: 2091 a9da 8c35 f3bf cdaf 36a7 bd40 febf
00000530: 5c90 1b66 cc6c e73f ccad 449c 7dd0 f0bf
00000540: 66be 3322 b615 dbbf 3759 7469 d7d7 d4bf
00000550: 1831 29a4 93d7 e5bf 717d 6b04 46fc f4bf
00000560: 12fa 0975 e624 df3f de37 da92 3756 ef3f
00000570: d3f5 38bf 6fd8 d73f 2c9c d220 a603 e13f
00000580: 08e6 177e ac5e eb3f ee69 e338 6168 d4bf
00000590: 914a d27e 76d2 ec3f 2f03 9053 6c4f cc3f
000005a0: 39c7 9c7d 37f2 e1bf ff8d 4757 1309 bd3f
000005b0: 6d0f 269e 9a65 ef3f ef93 8588 11d1 0040
000005c0: c4ed 8293 b2aa c73f 1552 1ef7 a502 f63f
000005d0: 745c dcc9 9e4c fbbf ad60 d906 23ae 0240
000005e0: b577 c805 75f0 0540 812c 4965 28a1 f13f
000005f0: c018 7f08 bd88 e8bf 717d 6b04 46fc f4bf
00000600: cc12 da57 2cc3 dc3f 3733 14f5 4d96 f03f
00000610: 3ed8 75cf 7f09 e3bf 8876 1ea2 e865 f33f
00000620: 7dea 4111 2ec4 f33f 2452 1e7c a50e fd3f
00000630: c292 5d7a d477 dc3f d351 be66 b383 c3bf
00000640: 8c42 d50e ab8d f93f e61e 1998 ef00 f03f
00000650: e07f 09c5 9625 ea3f 1540 b497 71f5 f1bf
00000660: 7aca a2d8 628a e73f fde1 c8dc ebd9 ea3f
00000670: ea5f dda8 7a95 d23f 8d02 b112 400b e8bf
00000680: 0df6 6101 13a3 ddbf 40fb 4fcf 5c0b d6bf
00000690: 31a9 0853 ac89 6d3f fbfd 934e a8c0 dfbf
000006a0: 6438 64f4 eb60 e6bf 1540 b497 71f5 f1bf
000006b0: 0a2b 0ff5 b38d ecbf 6969 ff27 6fc5 fbbf
000006c0: 5820 d37c 5940 bc3f 2902 d35b eb96 ed3f
000006d0: 303e bc1e 2ee9 c9bf b0f5 dace ad6a cebf
000006e0: f1ec 00b9 39ca dcbf 904b b299 9c23 cc3f
000006f0: 0787 c376 33d3 ef3f 145e e214 49d5 e1bf
00000700: f92b 4d12 526e e03f b37b bc54 5ef2 f7bf
00000710: dfb0 78bd 0fd8 ea3f 1e37 32a4 a726 debf
00000720: bd83 22d7 751d c7bf 9d83 258e 96e4 cbbf
00000730: eee4 161c 7bd1 e9bf 717d 6b04 46fc f4bf
00000740: 48c8 2b5b df78 f6bf 12c7 dd51 b7e9 e03f
00000750: a046 5dab ffa8 b63f 8751 bfc5 7983 f6bf
00000760: 0fc2 5f40 6409 f2bf d8a2 091e 809f e13f
00000770: 8af9 7180 5314 debf 73a6 4bc5 9404 d4bf
00000780: 493c 607c 99ec 99bf 63aa 8a82 97e2 c8bf
00000790: 33cb 7d7d 6489 fcbf 1540 b497 71f5 f1bf
000007a0: 5de8 1482 8c44 e9bf a091 1e50 6fa7 f83f
000007b0: 920a 7b75 e5d4 e23f 675d 0dc8 659a d2bf
000007c0: 2aa2 9e93 01fa dabf a143 923c 9029 d2bf
000007d0: ea6c 90aa 93e6 ebbf 742b 264e 056f c83f
000007e0: 6566 c61f 1bd8 f43f 6b3d 0618 9f87 f13f
000007f0: 9762 3418 7dea f3bf 31d1 11ee 4849 b43f
